checkpoint_critic1.pth (torch_old, 159748 bytes, 5 tensors)

fcs1.weight f4 [256, 24]
0	0x3eb66fe8	0.35632253
1	0xbec536a2	-0.38518244
2	0x3c40ab35	0.011759569
3	0xbd1ba93b	-0.038003188
4	0x3d8d3a16	0.06895845
5	0xbe873051	-0.2640405
6	0xbd137dd9	-0.03600869
7	0x3cf26960	0.029591262
8	0x3e88e4f3	0.26737174
9	0xbef26871	-0.47345307
10	0xbd96b3ab	-0.07358488
11	0xbbf1f936	-0.0073844446
12	0x3ea17fa4	0.31542695
13	0xbf1bed41	-0.60908896
14	0x3cd71556	0.026255291
15	0x3a60b8c0	0.0008572452
16	0x3e85157f	0.25992963
17	0xbf2a50d5	-0.6652959
18	0x3d6badb9	0.05753872
19	0xbd7baec4	-0.061445966
20	0x3eb1c604	0.34721386
21	0xbebfe14e	-0.3747658
22	0xbd1ad158	-0.037797302
23	0xbd0b42b9	-0.03399918
24	0x3da6f9ba	0.081531
25	0xbe3d38b7	-0.18478666
26	0x3b171834	0.0023055198
27	0xbdfe30cd	-0.12411652
28	0x3db6b98a	0.089221075
29	0xbdadf41a	-0.08493824
30	0x3d40719f	0.046983358
31	0xbe14d95f	-0.14536045
32	0x3d7f93e3	0.062396895
33	0xba40ad0b	-0.0007350004
34	0xbc45a4d6	-0.012063226
35	0x3e0939f4	0.13401014
36	0x3d1321ca	0.035920896
37	0xbdc9b9f1	-0.09849919
38	0xbd450ce7	-0.048108008
39	0x3e071fb3	0.13195686
40	0x3e130420	0.14357042
41	0xbd9df9c6	-0.07713656
42	0xbdff76d3	-0.12473836
43	0xbe6a3353	-0.22871141
44	0x3dd6f70e	0.10496341
45	0xbe2ace5d	-0.16680284
46	0xbda89843	-0.082321666
47	0xbe4d9e77	-0.20079981
48	0x3d74ddcb	0.05978183
49	0xbbd472e3	-0.006483422
50	0x3d4f95bd	0.05067991
51	0xbdddb077	-0.108246736
52	0x3cde195f	0.027111707
53	0xbe94d140	-0.29065895
54	0x3d936cd3	0.07198491
55	0xbdc238fb	-0.094835244
56	0x3d6ac63e	0.057317965
57	0xbd0fd265	-0.035112757
58	0xbd1faa7a	-0.03898094
59	0xbe909f9c	-0.28246772
60	0x3d25f2b6	0.04051467
61	0xbdc57d9f	-0.09643101
62	0xbcc9ce13	-0.024634397
63	0xbe52dcbb	-0.20592014
64	0x3ebd79a0	0.37006855
65	0x3e3a83e5	0.18214376
66	0x3d436b92	0.04771001
67	0x3eba3bdc	0.36373794
68	0x3e475ec5	0.19469745
69	0xbd816213	-0.06317534
70	0xbc3d24f7	-0.011544458
71	0x3ebb7d88	0.3661921
72	0x3d147680	0.036245823
73	0x3e9662bd	0.29372206
74	0x3d90b043	0.07064869
75	0x3e0b1fde	0.13586375
76	0xbd3fe794	-0.04685171
77	0xbe4fe1e2	-0.20301011
78	0x3da7627a	0.0817308
79	0x3e1fd2bd	0.15607734
80	0xbb8acaa2	-0.0042355815
81	0x3ea565c1	0.32304195
82	0xbcc6f70b	-0.024287721
83	0xbd6139f2	-0.0549869
84	0x3c0a73f9	0.008450502
85	0xbea6c8dd	-0.32575122
86	0x3d2283d4	0.039676502
87	0xbe07da76	-0.1326693
88	0xbddb9706	-0.10722165
89	0x3e90a3b8	0.28249907
90	0xbd14bb0f	-0.036311205
91	0x3da4bc24	0.080436975
92	0x3e43b296	0.19111094
93	0xbf646c88	-0.89228106
94	0xbcae553f	-0.021280883
95	0x3d93fe1f	0.07226204
96	0x3e4ab2f6	0.1979483
97	0xbdd587be	-0.104262814
98	0xbd41a92a	-0.047280468
99	0xbd07d372	-0.033160634
100	0x3dbf1f14	0.093320996
101	0x3dc27061	0.09494091
102	0x3c5bc706	0.01341415
103	0xbda09fbb	-0.07842966
104	0x3c7aed8a	0.015315423
105	0xbe084cf1	-0.13310601
106	0xbd141b6b	-0.03615896
107	0xbd811a97	-0.063039
108	0x3deaad16	0.11458795
109	0x3e4fb4d1	0.2028382
110	0xbd6d761a	-0.05797396
111	0x3d0ae928	0.03391376
112	0x3d8421e7	0.06451779
113	0xbe2f553e	-0.17122361
114	0x3cc6b103	0.024254328
115	0x3ddded94	0.1083633
116	0xbdc6bf29	-0.0970443
117	0x3e224625	0.1584707
118	0x3d8661fa	0.06561656
119	0x3d872322	0.06598498
120	0x3d5e864d	0.054327298
121	0xbea40d57	-0.32041427
122	0x3d489b94	0.048976496
123	0x3d7c20e0	0.06155479
124	0xbd745408	-0.05965045
125	0xbe977025	-0.29577747
126	0x3c054fa6	0.008136665
127	0x3ca566bf	0.020190595
128	0x3d8e9c1a	0.06963368
129	0xbe75f095	-0.24017556
130	0x3cb4f180	0.022087812
131	0x3d94fb4d	0.07274494
132	0xbcd6033c	-0.02612459
133	0xbe73b780	-0.23800468
134	0xbb2d7868	-0.0026469473
135	0x3d495aee	0.049158983
136	0x3d525d04	0.051358238
137	0xbdb8116d	-0.08987699
138	0xbc1ac5b1	-0.009446547
139	0x3ec7fa28	0.39058042
140	0x3db97a45	0.09056524
141	0xbe06149f	-0.13093804
142	0x3bca249f	0.0061689164
143	0x3ea296c4	0.3175565
144	0x3e2dde75	0.16979392
145	0x3f3121bf	0.6919212
146	0xbd2d4630	-0.042303264
147	0xbe185082	-0.14874461
148	0xbe9d81ee	-0.3076319
149	0xbe2bda44	-0.1678248
150	0xbadb6cea	-0.0016740833
151	0xbdc30b69	-0.09523661
152	0x3e70c8ad	0.23514052
153	0x3f1ce042	0.6127969
154	0x3c89652c	0.016771875
155	0xbcaeb76b	-0.021327695
156	0xbe847697	-0.25871727
157	0xbec5355c	-0.38517272
158	0xbd84a29a	-0.06476326
159	0xbd8b9212	-0.0681497
160	0x3e646cc3	0.22307114
161	0x3f2de466	0.67926633
162	0xbc6ac06f	-0.014328106
163	0xbe3c0d72	-0.18364504
164	0xbe64153d	-0.22273727
165	0xbf48b946	-0.78407705
166	0xbc8ad6cf	-0.016948132
167	0xbe11c076	-0.14233574
168	0x3e782811	0.24234034
169	0xbe248639	-0.16066827
170	0xbcb679a8	-0.022274807
171	0x3bd95659	0.006632608
172	0xbd75c720	-0.060004354
173	0x3de743cf	0.1129223
174	0x3c3dea19	0.011591458
175	0x3cefb852	0.029262695
176	0x3e955663	0.2916747
177	0xbdd6d0cd	-0.10489044
178	0xbd34600f	-0.04403692
179	0xbde31335	-0.11087648
180	0xbe963608	-0.29338098
181	0xbe79f652	-0.2441037
182	0x3ce185e2	0.02752966
183	0xbd284483	-0.041080963
184	0x3ec32c33	0.3811966
185	0xbb06be5e	-0.0020560245
186	0x3bd05c86	0.006358686
187	0x3d28e9f3	0.041238736
188	0xbf108c53	-0.5646412
189	0xbf146d46	-0.5797924
190	0x3ce52bf4	0.02797506
191	0x3bba6ccc	0.005689239
192	0x3d4f864b	0.05066518
193	0xbe517d48	-0.20457947
194	0xbc466328	-0.012108602
195	0xbc962d9f	-0.0183323
196	0xbd60ab4e	-0.05485087
197	0xbddde9c4	-0.10835603
198	0x3c13968d	0.009008062
199	0xbd2e67eb	-0.042579573
200	0x3d064d1a	0.032788374
201	0xbd260f07	-0.040541675
202	0x3cfd687b	0.03093361
203	0xbcdcb8e1	-0.026943626
204	0xbda5770c	-0.08079347
205	0x3e0dfb5b	0.13865416
206	0xbd58355a	-0.052785255
207	0xbdd8703f	-0.10568284
208	0x3e29669e	0.16543052
209	0xbe3297a7	-0.17440663
210	0xb99c90dc	-0.00029862567
211	0xbd6ffefc	-0.05859278
212	0x3ed160dc	0.4089421
213	0x3f069a48	0.52579165
214	0x3ad25412	0.0016046783
215	0xbdaa22bd	-0.08307407
216	0xbded7f0b	-0.11596497
217	0x3e942d4b	0.28940806
218	0xbdba7970	-0.091051936
219	0x3daf52e5	0.08560733
220	0xbcb0f24a	-0.021599907
221	0xbeefca9b	-0.46834263
222	0xbcbd1d25	-0.023085186
223	0x3d9efff5	0.07763664
224	0x3dbec46a	0.09314807
225	0x3e036977	0.128332
226	0xbcbc562a	-0.022990305
227	0xbe998e9f	-0.29991624
228	0xbde07c0d	-0.10961161
229	0xbeaeba55	-0.34126535
230	0xbdbad232	-0.09122123
231	0xbe9eede9	-0.31040886
232	0x3d60a79c	0.054847345
233	0xbd86ae62	-0.0657623
234	0xbd891118	-0.066927135
235	0x3e5f1111	0.21783854
236	0xbe101b28	-0.1407286
237	0xbe47aeae	-0.19500229
238	0x3c6280db	0.013824667
239	0x3e3a2b3e	0.18180558
240	0x3c6a89e4	0.014315102
241	0xbe07547c	-0.13215822
242	0xbdd03a74	-0.10167399
243	0xbe16c915	-0.14725144
244	0x3ca26abf	0.019826291
245	0xbeb87896	-0.360295
246	0xbdeb1f1f	-0.11480545
247	0xbdc8e59b	-0.09809419
248	0x3e1f7d2a	0.1557509
249	0xbde35b04	-0.11101344
250	0x3db01816	0.08598344
251	0x3e6b6110	0.22986245
252	0x3d698b39	0.05701754
253	0xbef4f5ed	-0.47843876
254	0x3ac98cc1	0.0015377031
255	0x3e78b418	0.2428745

fcs1.bias f4 [256]
0	0xbe23821a	-0.15967599
1	0x3de2e0c0	0.11078024
2	0xbe276f42	-0.16351035
3	0xbd49423d	-0.049135435
4	0xbea95877	-0.33075306
5	0xbf0c0e48	-0.5470929
6	0x3e3e5bb8	0.18589675
7	0x3ed6f441	0.41983226
8	0xbf2b022d	-0.66800195
9	0xbea75d27	-0.32688257
10	0xbe42d554	-0.1902669
11	0xbdc2c969	-0.09511072
12	0x3d2b8b33	0.041880798
13	0xbdfbe85d	-0.12300179
14	0x3ce9cf3d	0.028541202
15	0xbd5a1505	-0.053242702
16	0x3df5b8d6	0.11998145
17	0xbe3ed7a7	-0.18636952
18	0xbe1f0272	-0.15528277
19	0xbeadd5cd	-0.3395218
20	0x3e205bfc	0.15660089
21	0xbf1789f8	-0.591949
22	0xbe926fd7	-0.28600952
23	0xbeedd13f	-0.46448705
24	0xbdc6f835	-0.097153105
25	0xbeb2691d	-0.3484582
26	0xbe0a13d5	-0.13484128
27	0x3ce6d3a5	0.028177092
28	0xbe2167be	-0.15762231
29	0xbe845476	-0.2584569
30	0xbe46fd49	-0.19432558
31	0xbe3c1149	-0.18365969
32	0xbe2e7ce6	-0.17039832
33	0xbeb18ac0	-0.3467617
34	0xbb9b4d88	-0.004739467
35	0x3dd250ec	0.10269341
36	0xbec9c9ff	-0.39411923
37	0x3e0416ca	0.12899318
38	0xbe908275	-0.2822453
39	0x3e1d3287	0.15351306
40	0xbf0ba7eb	-0.545531
41	0xbe95e908	-0.2927935
42	0x3e3a0f21	0.18169834
43	0xbee58dff	-0.44834897
44	0xbd967743	-0.07346966
45	0xbe859f53	-0.26098117
46	0xbe75311d	-0.23944516
47	0xbd3f7ac0	-0.046747923
48	0xbe97e4f1	-0.29666856
49	0xbe9ba9ba	-0.3040293
50	0x3d9b1c61	0.07573772
51	0x3e681b62	0.22666696
52	0xbbcdf57b	-0.006285367
53	0xbecfe935	-0.4060761
54	0xbdf7ac5e	-0.12093423
55	0xbe97a7cc	-0.29620206
56	0x3dc83384	0.09775451
57	0xbea9f2af	-0.33192965
58	0xbef370f4	-0.47547114
59	0xbd1a5f14	-0.03768833
60	0x3dd9a179	0.106265016
61	0xbdddb6f6	-0.10825913
62	0x3e612b59	0.21989192
63	0xbe919034	-0.2843033
64	0xbe189bb6	-0.14903149
65	0xbe4c8b83	-0.19975094
66	0xbdaf0477	-0.085457735
67	0x3f09b6a4	0.5379431
68	0xbef551d6	-0.47913998
69	0xbe8e85c2	-0.27836424
70	0xbe15a698	-0.14614332
71	0xbedad39a	-0.42739564
72	0xbeee2021	-0.46508887
73	0x3dd8db7e	0.1058874
74	0x3dcc840f	0.09986126
75	0x3ee5b96d	0.4486803
76	0xbd13a2b1	-0.036043826
77	0x3dcdeb6d	0.100546695
78	0xbd5b5aae	-0.053553276
79	0xbdd0ee44	-0.102016956
80	0xbe3f1050	-0.18658566
81	0xbe2ed95d	-0.17075105
82	0xbe3f3c06	-0.18675241
83	0xbeab9e53	-0.3351923
84	0x3c86207a	0.016372908
85	0xbe8e31e1	-0.2777243
86	0xbcedfff6	-0.029052716
87	0xbe58161a	-0.21102181
88	0xbe810ce5	-0.2520515
89	0xbdc3d95b	-0.09562942
90	0x3cf12130	0.02943477
91	0xbe72260a	-0.23647323
92	0xbf36cf06	-0.7140964
93	0xbcbe19bb	-0.023205629
94	0xbe300759	-0.17190303
95	0xbf173980	-0.59072113
96	0xbd7ca77e	-0.06168317
97	0xbec9e859	-0.3943508
98	0x3d23b1c5	0.039964456
99	0x3e87c1c3	0.26515016
100	0x3e31fdca	0.17381969
101	0xbccdc810	-0.025119811
102	0x3dd8612a	0.105654076
103	0xbe88735d	-0.26650515
104	0xbecec6e3	-0.40386114
105	0x3df5f43f	0.12009477
106	0x3c930cf3	0.01795051
107	0xbe567a99	-0.20945205
108	0x3ed0fc8a	0.40817672
109	0xbe45484a	-0.19265857
110	0xbe898a21	-0.26863196
111	0x3ddd843a	0.10816236
112	0xbeaee7c0	-0.34161186
113	0xbe4c1358	-0.19929254
114	0xbe16e462	-0.14735559
115	0xbd96f7a3	-0.07371452
116	0xbc84b42b	-0.016199192
117	0xbf0d0262	-0.5508176
118	0xbedace0a	-0.4273532
119	0xbd1a1ce0	-0.037625194
120	0xbe488b2d	-0.19584341
121	0xbebe96a9	-0.3722432
122	0x3db705db	0.08936664
123	0x3c75910d	0.014988196
124	0xbdc4fb1f	-0.0961821
125	0xbf095b08	-0.5365453
126	0xbe9029fd	-0.28157035
127	0xbe513962	-0.20432046
128	0xbdace0ac	-0.0844129
129	0xbdda05fd	-0.106456734
130	0xbf10183d	-0.56286985
131	0x3f0958a7	0.536509
132	0xbea10265	-0.3144714
133	0x3e0b3b7d	0.13596912
134	0x3edef742	0.43548018
135	0x3c7be362	0.0153740365
136	0xbb18329c	-0.0023223525
137	0xbe22cc4d	-0.15898247
138	0xbe304186	-0.17212495
139	0xbe41f128	-0.1893965
140	0x3eea8a2c	0.45808542
141	0x3cb9119f	0.02259141
142	0x3d8478ae	0.0646833
143	0xbe9394a9	-0.28824356
144	0x3ea32934	0.31867373
145	0xbedc4d11	-0.43027547
146	0xbe48f450	-0.19624448
147	0xbecda32b	-0.4016355
148	0xbeb4c7d2	-0.353087
149	0x3eedf119	0.46473005
150	0xbcb094ae	-0.021555271
151	0x3e3ba43e	0.18324372
152	0x3ec2354a	0.3793128
153	0xbed348c8	-0.41266465
154	0x3dc4b984	0.09605697
155	0xbe15e1d4	-0.14636928
156	0x3d3cc713	0.04608829
157	0xbe63411f	-0.2219281
158	0xbe6140ca	-0.21997371
159	0xbdf7bb66	-0.1209629
160	0xbed44b8d	-0.4146389
161	0xbcdd0946	-0.026981961
162	0xbcc37acc	-0.023862265
163	0xbe570782	-0.20998958
164	0x3e10b88f	0.14132904
165	0x3cfb89c7	0.030705346
166	0xbc3982a6	-0.011322653
167	0x3e60477b	0.21902268
168	0x3d12141f	0.03566372
169	0xbd8f314b	-0.06991824
170	0xbebcdc13	-0.36886653
171	0xbe0b3f58	-0.13598382
172	0xbeb148de	-0.34625906
173	0xbef16971	-0.47150758
174	0xbecb7ba2	-0.39742762
175	0xbeec494e	-0.46149677
176	0x3e331635	0.1748894
177	0x3d1cb35a	0.03825698
178	0xbed8b208	-0.42323327
179	0xbe24943f	-0.16072176
180	0xbdce1dbd	-0.10064266
181	0xbe13558e	-0.14388105
182	0xbe83d225	-0.25746265
183	0x3e520f90	0.20513749
184	0x3ebd6c68	0.3699677
185	0xbdbd7c20	-0.092521906
186	0xbd942999	-0.072344966
187	0xbcc46a9a	-0.023976613
188	0x3e5cd423	0.21565299
189	0x3d15969f	0.036520597
190	0x3df3f6ec	0.11912331
191	0x3e91c36d	0.2846941
192	0xbdd92b21	-0.10603929
193	0x3e0bb2f1	0.1364248
194	0x3e1ca4f2	0.15297297
195	0xbe880698	-0.2656753
196	0xbe77aba7	-0.24186574
197	0xbe899d6b	-0.26877913
198	0x3eb7c0e3	0.35889348
199	0xbe18f930	-0.14938807
200	0xbc082071	-0.008308516
201	0x3e225808	0.15853894
202	0xbe2c931e	-0.16852996
203	0xbe9e84d1	-0.30960706
204	0xbe902aa4	-0.28157532
205	0x3e296551	0.16542555
206	0xbe9ed8a8	-0.3102467
207	0x3ed4e8b4	0.41583788
208	0x3da11489	0.07865245
209	0xbecfd13e	-0.40589327
210	0x3db7e353	0.089789055
211	0xbec50c80	-0.384861
212	0x3e1c15d8	0.15242708
213	0xbd9ae5d1	-0.07563365
214	0xbdebcfb7	-0.11514228
215	0xbd96110d	-0.07327471
216	0x3eeefdcc	0.46678007
217	0xbd9a2cf3	-0.07528105
218	0x3de7dab2	0.1132101
219	0xbec5cd0e	-0.38633007
220	0xbed447c7	-0.41461012
221	0xbcd2b072	-0.025718901
222	0xbe0e843e	-0.13917634
223	0xbe9748cd	-0.2954773
224	0x3d95abf2	0.073081866
225	0xbf0b9c15	-0.5453504
226	0x3e4e580b	0.20150773
227	0xbe05ae2d	-0.13054724
228	0xbdbf44f3	-0.09339323
229	0xbee778a0	-0.45209217
230	0x3ed15cf2	0.40891224
231	0x3dd2a721	0.102857836
232	0xbdd25934	-0.102709204
233	0xbe050377	-0.12989603
234	0x3e79ab74	0.2438181
235	0xbe19af0c	-0.15008181
236	0xbee6f03e	-0.45105165
237	0x3eb7c929	0.3589566
238	0x3e951037	0.29113933
239	0x3e31de3a	0.17369929
240	0xbe85e086	-0.2614786
241	0xbdf43597	-0.11924284
242	0xbde456de	-0.11149381
243	0xbd8a80ff	-0.06762885
244	0x3da64c7c	0.08120057
245	0xb9953fb9	-0.00028466972
246	0xbeead91e	-0.45868772
247	0xbed36ec3	-0.41295442
248	0xbe80072c	-0.25005472
249	0xbed31c48	-0.41232514
250	0x3be69783	0.0070371046
251	0xbd903ff0	-0.07043445
252	0xbd8c6293	-0.06854739
253	0x3ed2ae30	0.4114852
254	0xbe53e275	-0.20691855
255	0x3c66c828	0.014085807

fc2.weight f4 [128, 258]
0	0xbd26ecc7	-0.040753152
1	0xbcf44338	-0.029817209
2	0x3d9f44e9	0.077768154
3	0xbc0be537	-0.008538536
4	0x3d357981	0.04430533
5	0xbcd8197c	-0.02637934
6	0x3d2562a8	0.04037729
7	0x3d9b3fc1	0.075805195
8	0xbe0ffb1f	-0.14060639
9	0xbb1cd604	-0.0023931274
10	0x3cbb88a2	0.0228923
11	0xbd98cb67	-0.07460671
12	0xbd01609b	-0.03158627
13	0xbd59f488	-0.05321172
14	0xbcf4e346	-0.029893529
15	0x3d822bc4	0.06356004
16	0xbda757b2	-0.081710234
17	0xbcf24b63	-0.029576963
18	0x3d401fa9	0.046905193
19	0xbd5fcfa1	-0.05464137
20	0xbc6639d1	-0.01405187
21	0xbd484a5a	-0.048899032
22	0x3c2bc1f5	0.010483255
23	0xbd3d9e8f	-0.04629379
24	0xbdd3fd65	-0.103510655
25	0xbd800ddf	-0.06252646
26	0xbd7424c9	-0.059605394
27	0x3c8f99fc	0.01752948
28	0xbd16e0e1	-0.036835555
29	0xbb9ae384	-0.004726829
30	0xbd1143be	-0.035464995
31	0xbd779395	-0.06044348
32	0x3d4db591	0.050221983
33	0x3ba9572d	0.005167863
34	0xbdae9751	-0.08524955
35	0x3d0029f4	0.03129001
36	0xbc877a89	-0.016537922
37	0x3d49cc8d	0.04926734
38	0xbdafc262	-0.085819975
39	0xbe10590f	-0.14096473
40	0xba879005	-0.0010342604
41	0x3c375d1b	0.011191632
42	0xbd2ffd5e	-0.04296624
43	0xbddac767	-0.10682564
44	0xbd60688a	-0.054787196
45	0xbdb4a9d1	-0.088214524
46	0xbd079e80	-0.03311014
47	0xbcf2816c	-0.029602729
48	0xbd7b5cb1	-0.061367694
49	0xbc3b63ac	-0.011437338
50	0xbd803511	-0.062601216
51	0xbcbc0f43	-0.022956496
52	0x3d268114	0.040650442
53	0x3be0a36c	0.006855419
54	0xbd536132	-0.051606365
55	0x3d005316	0.031329237
56	0xbdeeb875	-0.11656276
57	0x3d35dcc7	0.044400003
58	0xbd41c1b9	-0.04730389
59	0x3cb21039	0.021736251
60	0xbcde4133	-0.027130699
61	0x3c7f90b2	0.015598463
62	0x3d43773d	0.047721136
63	0xbdc5f7b5	-0.09666387
64	0xbd765c8a	-0.060146846
65	0xbdb5715a	-0.08859511
66	0xbd63676f	-0.055518564
67	0xbdf46ac8	-0.119344294
68	0x3c7dfd2a	0.015502254
69	0xbd9f72f9	-0.07785601
70	0xbd9d65ea	-0.07685454
71	0xbc927ba5	-0.017881224
72	0xbd6361c5	-0.055513162
73	0x3d493083	0.04911853
74	0xbd8ec0f0	-0.06970394
75	0x3d2eb6e8	0.0426549
76	0x3c198a1f	0.00937131
77	0x3d08f281	0.033434395
78	0x3c84edfa	0.016226757
79	0xbe0d86d9	-0.13820972
80	0xbc5816b9	-0.013189011
81	0xbd2484e9	-0.040165816
82	0x3d1f813c	0.038941607
83	0xbd9167a3	-0.07099845
84	0x3cc27548	0.023737565
85	0x3d35a27f	0.04434442
86	0x3cbd9bcd	0.02314558
87	0x3d67aa6c	0.05655901
88	0xbd8d7f1b	-0.06909009
89	0xbc95468c	-0.018222116
90	0x3d7cd1aa	0.06172339
91	0xbdabb22d	-0.08383594
92	0xbe05a407	-0.13050853
93	0xbd68a434	-0.05679722
94	0xb9cfc951	-0.0003963211
95	0xbdcdfef5	-0.10058395
96	0x3da49623	0.08036449
97	0xbce0700b	-0.027397176
98	0xbde4e442	-0.11176349
99	0xbd892347	-0.06696182
100	0xbdca95f9	-0.09891886
101	0xbdb8ecde	-0.09029554
102	0xbd7f3b7d	-0.06231259
103	0xbd648460	-0.055790305
104	0xbdf4bfc9	-0.119506426
105	0xbdac7ae4	-0.08421877
106	0xbd1e6b51	-0.038676564
107	0xbd8b4b24	-0.06801441
108	0x3cb81933	0.022472953
109	0xbcddc646	-0.027072083
110	0x3c5c7212	0.013454931
111	0xbccbae46	-0.024863373
112	0xbd88b857	-0.06675785
113	0xbdc2d994	-0.09514156
114	0xbd969914	-0.07353416
115	0x3d5f5c4f	0.05453139
116	0xbde4c362	-0.11170079
117	0xbcae759f	-0.02129632
118	0x3dd268c9	0.102738924
119	0x3d7a67c6	0.061134122
120	0xbdd49ac4	-0.10381082
121	0x3d1f074f	0.03882533
122	0xbd90560e	-0.07047664
123	0x3cb0648f	0.021532325
124	0xbde78395	-0.11304394
125	0xbd731a91	-0.059351508
126	0xbd788a77	-0.060678925
127	0xbdd693b1	-0.10477389
128	0xbd90a59c	-0.070628375
129	0xbd2d9652	-0.042379685
130	0xbdb3d21c	-0.087803096
131	0xbc979ece	-0.018508341
132	0xbd491ecc	-0.049101636
133	0xbc8a6221	-0.016892495
134	0xbc8c7066	-0.01714344
135	0xbc8d2479	-0.017229306
136	0x3d542056	0.05178865
137	0xbd14ded3	-0.036345314
138	0x3c7c392e	0.015394492
139	0x3d201e1d	0.03909122
140	0xbcb9cd39	-0.022680866
141	0xbbe192b8	-0.0068839453
142	0x3caffd91	0.021483215
143	0xbd205b78	-0.03914973
144	0x3caf0e91	0.02136925
145	0xbd81f181	-0.06344891
146	0xbcbef52c	-0.023310266
147	0xbd1cf03c	-0.038315043
148	0x3c87b071	0.016563626
149	0xbb12a68c	-0.0022377102
150	0xbd9e85a8	-0.07740337
151	0x3b97c9db	0.0046322173
152	0xbcd18b23	-0.02557904
153	0x3cda93f5	0.02668188
154	0xbd806d83	-0.06270888
155	0xbd8c6384	-0.068549186
156	0x3d13b260	0.036058784
157	0x3dd58477	0.10425656
158	0xbd10db13	-0.035365175
159	0x3da69e62	0.08135678
160	0x3bf76c20	0.0075507313
161	0xbcbadcee	-0.022810426
162	0x3cd1bdb5	0.025603155
163	0xbd854213	-0.06506743
164	0xbd867529	-0.06565315
165	0xbd017486	-0.031605266
166	0xbd64b9c0	-0.055841208
167	0xbd38392c	-0.0449764
168	0xbb204578	-0.002445547
169	0xbd8feab7	-0.0702719
170	0xbd65ca38	-0.056101054
171	0xbe2e21f6	-0.17005143
172	0x3ca1df7a	0.019759882
173	0xbd8e050c	-0.06934556
174	0xbdcd7052	-0.10031189
175	0x3d08474b	0.033271115
176	0x3d04f74f	0.032462414
177	0x3c994ce7	0.018713428
178	0xbd494025	-0.04913344
179	0xbd10dfb1	-0.03536958
180	0xbaa9fe5f	-0.0012969485
181	0xbe3ae2f1	-0.18250634
182	0xbd82dd2a	-0.0638984
183	0xbe38b356	-0.18037161
184	0xbe023b40	-0.12717915
185	0x3bc6c645	0.006066116
186	0x3d5d519b	0.054032903
187	0x3cbe90e0	0.023262441
188	0xbe177632	-0.14791182
189	0x3ca485cd	0.020083332
190	0x3b8ccce4	0.004296886
191	0x3d0f54b9	0.034992907
192	0xbcc84c82	-0.024450544
193	0xbda6d869	-0.08146746
194	0xbb2690ae	-0.0025415826
195	0xbcabde2c	-0.020979963
196	0x3c7e3238	0.015514903
197	0xbc9fb782	-0.019496683
198	0x3d855b02	0.06511499
199	0xbe0361b7	-0.12830244
200	0x3c3ac370	0.011399135
201	0xbd9cd017	-0.076568775
202	0x3d07e260	0.033174872
203	0xbcb6f75d	-0.022334749
204	0x3ba2973a	0.0049618753
205	0xbd6e4ce7	-0.05817881
206	0x3d5c0e3e	0.05372452
207	0xbd8854c8	-0.06656796
208	0xbde0f73f	-0.109846584
209	0xbd4e352f	-0.05034369
210	0xbce1fb78	-0.02758573
211	0xbda88fe8	-0.08230573
212	0x3cade492	0.021227155
213	0xbd9b6bc1	-0.07588912
214	0xbd6cdeda	-0.057829715
215	0x3cd77be2	0.02630419
216	0xbd5b517f	-0.053544518
217	0xbe0005f0	-0.12502265
218	0x3a83e3d9	0.0010062411
219	0x3c7f0bf1	0.015566812
220	0xbd4adcd4	-0.049527004
221	0xbd99fc82	-0.07518865
222	0x3d7de50d	0.061986018
223	0xbcbf44a9	-0.02334817
224	0xbd457249	-0.048204694
225	0xbdd1f083	-0.10250952
226	0xbd2cf7b2	-0.04222841
227	0xbd771961	-0.060326938
228	0xbd9959b5	-0.074878134
229	0xbdb149a5	-0.08656625
230	0xbd9b21a5	-0.075747766
231	0xbcb424c5	-0.02199019
232	0x3ce9ff73	0.02856419
233	0xbd71b203	-0.059007656
234	0x3ce4529d	0.027871424
235	0x3d84dd7e	0.06487559
236	0xbe95ad82	-0.29233938
237	0xbb722011	-0.0036945383
238	0x3c5aab57	0.013346515
239	0x3c682bbe	0.014170585
240	0xbc7cd937	-0.015432647
241	0xbd4c46c4	-0.049872175
242	0x3c6fb70e	0.014631046
243	0xbd30017e	-0.042970173
244	0x3d9818d0	0.074266076
245	0xbe14a8f5	-0.14517577
246	0xbd7402f0	-0.059573114
247	0x3c386093	0.011253494
248	0xbcbddeb8	-0.02317749
249	0xbd847c24	-0.064689904
250	0x3c8f91b2	0.017525528
251	0x3ad3916e	0.0016141364
252	0xbdc5a3ed	-0.09650407
253	0x3d7c24ad	0.061558414
254	0x3965a18e	0.00021899326
255	0x3d5d9990	0.054101527

fc2.bias f4 [128]
0	0xbc10b845	-0.008832996
1	0x3e5c9bee	0.21543857
2	0xbda7f302	-0.08200647
3	0xbda71f82	-0.081603065
4	0x3dc3c0d3	0.09558263
5	0xbd108e13	-0.035291743
6	0xbdaf5910	-0.08561909
7	0xbc955436	-0.018228631
8	0x3d8b6146	0.06805663
9	0xbe326af1	-0.17423607
10	0xbcaf4e20	-0.021399558
11	0xbd095b74	-0.033534482
12	0xbda61256	-0.08108966
13	0xbdd1e952	-0.102495804
14	0x3e0b23e6	0.13587913
15	0xbe29d6ff	-0.16585921
16	0xbd841888	-0.064499915
17	0xbd217cd2	-0.03942568
18	0xbdab5ef9	-0.08367724
19	0xbd9a8054	-0.07544008
20	0xbcbe3a1a	-0.023221064
21	0xbcb1c393	-0.021699702
22	0x3cf15533	0.029459571
23	0xbda5184c	-0.08061275
24	0xbd1b0b1d	-0.037852395
25	0xbe7a4c10	-0.24443078
26	0xbcb9c900	-0.022678852
27	0x3d953728	0.07285911
28	0x3d019cc4	0.031643644
29	0xbe9cc11d	-0.30616084
30	0xbcb55e65	-0.022139737
31	0x3e2442d9	0.16041125
32	0x3d0cf5cd	0.0344141
33	0xbcd55c6c	-0.026045047
34	0xbda345e2	-0.079723135
35	0x3e148996	0.1450561
36	0xbd3c8ee9	-0.046034727
37	0xbd0b043c	-0.033939585
38	0xbdd94ef5	-0.10610763
39	0x3e1c98f9	0.1529273
40	0xbdf0332b	-0.117285095
41	0xbcc73f48	-0.024322167
42	0x3e13cfcf	0.14434741
43	0xbcadfca5	-0.021238634
44	0xbb9f9c0a	-0.004870896
45	0xbd99a6f8	-0.0750255
46	0xbdbec1b6	-0.09314291
47	0x3d739f5e	0.059478156
48	0xbcb47288	-0.022027269
49	0x3e723789	0.23653997
50	0xbe02d6a9	-0.12777199
51	0xbd218042	-0.039428957
52	0xbd8d7562	-0.069071546
53	0xbe37160e	-0.17879507
54	0xbc5f1e67	-0.013618088
55	0xbed2f5aa	-0.41203052
56	0x3c6ae41c	0.014336612
57	0xbd8da34d	-0.06915913
58	0xbc078a53	-0.008272725
59	0xbeac6799	-0.3367279
60	0xbdbd2dbe	-0.0923724
61	0xbd8467e9	-0.06465132
62	0xbd9c7cac	-0.07640967
63	0xbbe70e7e	-0.007051288
64	0xbd831b68	-0.06401712
65	0xbdf3c1ef	-0.11902224
66	0x3e0dc2f5	0.13843901
67	0x3c087dea	0.0083308015
68	0xbe606d92	-0.21916798
69	0xbe89d0ae	-0.26917022
70	0xbdc345a6	-0.09534769
71	0xbbc6de12	-0.0060689533
72	0xbe247085	-0.16058548
73	0x3e2475ca	0.16060558
74	0x3cd61aa6	0.026135754
75	0xbdcc6db5	-0.099818625
76	0xbe825b5e	-0.25460333
77	0xbc524e3f	-0.012836038
78	0xbb96c6b7	-0.0046013254
79	0xba86702a	-0.0010256816
80	0x3dfa649d	0.12226222
81	0xbdc8d2b2	-0.09805812
82	0x3c7b23c0	0.015328348
83	0x3c997e05	0.018736849
84	0xbc474b29	-0.012163916
85	0x3d760237	0.060060706
86	0xbe05f8f9	-0.13083257
87	0xbdc41109	-0.09573562
88	0x3c68af1c	0.014201906
89	0xbd5b3e13	-0.053525995
90	0xbe8118f0	-0.25214338
91	0xbd9f2965	-0.07771567
92	0xbd95e69f	-0.07319378
93	0x3e805911	0.25067952
94	0x3d182022	0.03714002
95	0x3cc4bd4d	0.024016047
96	0xbe16c12b	-0.14722125
97	0xbdde0d45	-0.10842375
98	0x3cadb9bb	0.021206727
99	0x3dd6251e	0.10456298
100	0x3e335db2	0.1751621
101	0xbc8404df	-0.016115604
102	0xbd95fc76	-0.07323544
103	0x3eca642e	0.39529556
104	0xbd1a2acd	-0.037638474
105	0xbddec085	-0.10876564
106	0xbdf763f6	-0.12079613
107	0xbb4b8bc0	-0.003105864
108	0x3e0a9439	0.13533105
109	0xbd4b8bc7	-0.04969385
110	0xbde568dc	-0.11201641
111	0xbd3e4a1c	-0.046457395
112	0x3db0a6c5	0.08625559
113	0xbeafc706	-0.3433153
114	0xbd3a4230	-0.045473278
115	0xbdc37951	-0.09544624
116	0x3e51f528	0.20503676
117	0xbd9ee9e1	-0.077594526
118	0x3e986519	0.2976463
119	0x3dde357f	0.10850047
120	0x3c7b1bad	0.015326423
121	0xbbc943bb	-0.0061421073
122	0xbbe73a8d	-0.0070565403
123	0x3dbe6c65	0.09298018
124	0x3dfcd293	0.12344851
125	0xbd256724	-0.040381566
126	0xbda5ab0b	-0.080892645
127	0xbcd4313c	-0.025902383

fc3.weight f4 [1, 128]
0	0xbc128ffc	-0.008945461
1	0x3c40859b	0.011750604
2	0x3db33676	0.08750622
3	0x3c80586f	0.015667168
4	0x3c59f71b	0.013303543
5	0x3d5cb2e2	0.053881533
6	0xbbcfeabc	-0.006345121
7	0xb9db2416	-0.0004179782
8	0x3d474934	0.048653796
9	0xbe293aac	-0.16526288
10	0xbcdce475	-0.026964406
11	0x3c4f50ed	0.012653572
12	0xbe878f50	-0.26476526
13	0xbc002790	-0.007821932
14	0xbd0ac39a	-0.033877946
15	0xbd775670	-0.060385168
16	0xbb1e6c0c	-0.0024173288
17	0xbb8dd71d	-0.004328622
18	0xbd50ec2f	-0.051006492
19	0x3b60d7f8	0.0034308415
20	0xbd75bb12	-0.059992857
21	0xbe3cb802	-0.18429568
22	0xbd449d4b	-0.04800157
23	0xbc716c28	-0.014735259
24	0x3d29ef0d	0.041487742
25	0xbdb8c857	-0.09022587
26	0xbcd713aa	-0.026254494
27	0xbd06c5fc	-0.032903656
28	0x3ce462c2	0.027879123
29	0xbe2279ec	-0.15866822
30	0xbdd3097d	-0.10304544
31	0x3d0ac72d	0.033881355
32	0xbd4bf7fa	-0.049797036
33	0xbb5a3ad2	-0.003329922
34	0xbb85c918	-0.00408281
35	0x3daebb11	0.08531774
36	0xbd8ad82e	-0.06779514
37	0xbca2928a	-0.019845266
38	0xbd7d5581	-0.06184912
39	0x3d3aa7ed	0.045570303
40	0x3cbc9078	0.023018107
41	0x3d71d4dc	0.05904089
42	0x3d196503	0.037449848
43	0x3c73c7d0	0.014879182
44	0x3df138b7	0.117783956
45	0xbc2c4bc3	-0.01051611
46	0x3c55e308	0.013054617
47	0xbdac36f2	-0.084089175
48	0x3c4019f5	0.011724939
49	0xbcb36cce	-0.021902468
50	0x3c46f55e	0.012143461
51	0xbb8b31ea	-0.0042478936
52	0xbb52c572	-0.0032161144
53	0xbd186fa2	-0.037215836
54	0x3c0ef5a9	0.008725562
55	0x3d95ee58	0.07320851
56	0xbc879d44	-0.016554482
57	0xbcf16de4	-0.029471345
58	0x3c71a963	0.014749858
59	0xbd2566b4	-0.04038115
60	0xbbc53dee	-0.0060193455
61	0x3d4114bc	0.047138914
62	0xbd5e09eb	-0.054208677
63	0xbe14c4d2	-0.14528206
64	0xbbc28047	-0.005935702
65	0xbc9d825f	-0.019227205
66	0x3d2c32cb	0.042040627
67	0x3daa6b15	0.083212055
68	0xbd2a3c6f	-0.04156154
69	0xbce1240c	-0.027483009
70	0xbe0243c6	-0.12721166
71	0x3d4d06bb	0.050055247
72	0xbdb80f0b	-0.08987244
73	0xbd9d2167	-0.076723866
74	0x3d90d341	0.070715435
75	0xbd82acbc	-0.06380603
76	0xbd3a2501	-0.045445446
77	0x3b8bfcf0	0.004272096
78	0x3ca4ab52	0.020101223
79	0x3dd156f2	0.102216616
80	0x3c62b32a	0.013836661
81	0xbdaef3aa	-0.08542569
82	0xbcc26063	-0.023727601
83	0x3d5d6b05	0.05405714
84	0xbdc49d03	-0.0960026
85	0x3da2b600	0.0794487
86	0x3cc10522	0.023562018
87	0xbdabb9d2	-0.08385052
88	0x3ba26418	0.0049557798
89	0xbcdc81e3	-0.026917404
90	0xbc9fed2e	-0.019522276
91	0xbcc5bbcc	-0.0241374
92	0x3dcb3691	0.09922517
93	0xbcc193a4	-0.02362997
94	0xbdab99e6	-0.08378963
95	0xbc97b636	-0.018519502
96	0xbd7ee779	-0.06223247
97	0xbc9e3378	-0.019311652
98	0x3def642a	0.11689027
99	0xbd1a8331	-0.03772277
100	0x3c52795f	0.01284632
101	0xbd95a82d	-0.073074676
102	0xbcb1c6af	-0.021701185
103	0x3d094a56	0.033518158
104	0x3b89dde8	0.0042073615
105	0x3d4f167e	0.05055856
106	0xbcfdd324	-0.030984469
107	0xbcd9855b	-0.026552847
108	0x3d9812d9	0.0742547
109	0xbc5397d4	-0.012914617
110	0xbcdcf415	-0.026971856
111	0x3ca5e624	0.020251341
112	0x3d5c957e	0.053853504
113	0xbd2723bc	-0.040805563
114	0x3a5e14fe	0.0008471756
115	0xbdafba37	-0.085804395
116	0xbcda0425	-0.026613304
117	0x3b8e3b36	0.0043405546
118	0xbcaf08a0	-0.021366417
119	0x3cb99858	0.022655651
120	0xbc3587b3	-0.0110797165
121	0xbe6989d1	-0.22806479
122	0xbd324f8e	-0.0435329
123	0xbd023383	-0.031787407
124	0x3c9775d1	0.018488796
125	0xbc20fcc0	-0.009825885
126	0xbc98729b	-0.018609336
127	0xbd1635bd	-0.036672343
