checkpoint_actor2.pth (torch_old, 524633 bytes, 6 tensors)

fc1.weight f4 [400, 24]
-0.0920634 0.038493462 -0.05293967 -0.18201204 -0.32934883 -0.3019922 -0.08536787 -0.13203059
-0.1344619 0.0034844244 0.037704907 0.13963917 0.12448462 -0.43997255 0.0406991 0.15827763
-0.09140238 0.084672004 -0.05236393 0.16741025 0.44385257 -0.85213995 -0.09700249 0.09936911
0.10377172 0.46262643 -0.07423573 -0.081562884 0.07496766 -0.19840458 -0.045867443 -0.03540817
0.054837383 0.5074964 0.107999414 0.20897609 -0.0025969571 -0.7074218 0.14363436 0.19970532
0.06252963 0.41377285 0.061383996 0.36051017 -0.12711556 -1.1455486 0.111981764 0.3411474
0.02301087 0.066611886 -0.20471212 -0.040282845 0.06622838 -0.47558227 -0.1909131 -0.03089161
0.08593991 0.23459615 0.09675626 0.05217113 0.23764096 -0.5185914 0.018401952 0.06718623
0.08332782 0.2916568 -0.0015115635 0.28399593 0.37376988 -0.56957823 0.03176464 0.24432592
0.09691872 -0.021271806 -0.0011392842 0.13922836 -0.1982541 -0.6700364 0.0058560213 0.14351974
-0.0007573138 -0.118388794 -0.07970118 0.32661888 0.42624938 -0.15363006 -0.03514752 0.349805
0.038466457 -0.018380651 -0.021080928 0.24063142 0.6597447 0.22248836 -0.010192271 0.22953545
0.16913374 -0.24689737 0.101084694 0.010797353 0.04914186 -0.27583864 0.056774475 0.060445674
0.21180312 -0.12710017 -0.17818293 0.3557294 0.029979479 -0.70736605 -0.18252543 0.31305355
0.2499595 -0.14019811 0.011419476 -0.09588129 0.09004234 -0.87818706 -0.017055316 -0.12507361
0.04735307 0.762592 -0.17867571 0.10433223 -0.01605616 -0.19735228 -0.18322268 0.04234553
0.03533731 0.6436582 0.062238272 -0.24173526 0.07824699 -0.21905556 0.016676378 -0.24830922
0.1577865 0.7582939 0.062062927 0.34411526 0.13203013 -0.25323498 0.069956966 0.27099967
-0.20202067 -0.046289235 -0.014626148 0.1504114 0.17623793 0.120688975 0.014099193 0.2077315
-0.033151932 0.00950825 -0.048133057 0.13504064 -0.03668531 -0.17474186 0.0062630167 0.12074089
0.025479965 -0.012758964 0.0064075748 -0.0046782005 -0.28916958 -0.46189192 0.030387983 -0.019845132
0.13784854 -0.44550812 0.09266358 -0.056132946 -0.19638619 -0.17330061 0.032199252 -0.111555845
0.3094048 -0.28951508 0.06913674 0.063540496 -0.18942648 -0.29151788 0.10782119 0.15984899
0.4258572 -0.3610224 0.04902204 0.08202023 -0.1429782 -0.18399544 0.034519635 0.09967024
-0.0069245636 0.61629546 -0.010181416 0.12707764 -0.20506395 -0.3091075 -0.016034372 0.08435799
-0.119242825 0.7419886 -0.09310891 0.22378756 -0.062473886 -0.66805077 -0.10358029 0.23143022
-0.03997719 0.6804499 0.011047708 -0.35037702 0.030569512 -1.111008 0.013462923 -0.3226064
0.06088786 -0.02537696 0.12003043 -0.2996279 -0.16671605 -0.5463278 0.09596336 -0.3361717
0.079506636 -0.12029907 0.017850166 -0.060481783 -0.20486604 -0.9905199 0.01063477 -0.04307448
0.1068024 -0.11802212 -0.04633927 -0.16496745 -0.16312061 -1.4481845 -0.10192684 -0.14473222
-0.009462907 -0.19738992 0.035756435 0.09378352 -0.41485363 0.021050049 0.008902707 0.037481714
-0.04455809 -0.08090995 -0.10156795 -0.18419077 0.21599333 0.06236468 -0.14445004 -0.13467637
00000000: bc8b bcbd 52ab 1d3d 44d7 58bd 5d61 3abe
00000010: 69a0 a8be b99e 9abe 5ad5 aebd 0733 07be
00000020: 61b0 09be f15a 643b 7670 1a3d 92fd 0e3e
00000030: cbf1 fe3d 1544 e1be 19b4 263d 8813 223e
00000040: 2c31 bbbd 8468 ad3d 8f7b 56bd 986d 2b3e
00000050: a540 e33e d825 5abf 3ea9 c6bd 0882 cb3d
00000060: 4486 d43d 5fdd ec3e e708 98bd 710a a7bd
00000070: a588 993d 922a 4bbe 80df 3bbd 2808 11bd
00000080: 2a9d 603d 49eb 013f cc2e dd3d d4fd 553e
00000090: b631 2abb 9819 35bf e314 133e 8d7f 4c3e
000000a0: 890f 803d 09da d33e c96d 7b3d ca94 b83e
000000b0: 952a 02be 56a1 92bf b256 e53d dfaa ae3e
000000c0: 4b81 bc3c d06b 883d 0ea0 51be a0ff 24bd
000000d0: bfa2 873d 857f f3be b97e 43be 6710 fdbc
000000e0: 4301 b03d f939 703e 2528 c63d 65b1 553d
000000f0: 2758 733e 68c2 04bf b1bf 963c ef98 893d
00000100: c7a7 aa3d 0a54 953e a81f c6ba ea67 913e
00000110: c45e bf3e e1cf 11bf a41b 023d 9330 7a3e
00000120: 527d c63d 3642 aebc 0954 95ba e191 0e3e
00000130: 1f03 4bbe 8187 2bbf dee3 bf3b d7f6 123e
00000140: 7886 46ba d375 f2bd 5f3a a3bd 973a a73e
00000150: 5c3d da3e 3351 1dbe d9f6 0fbd a419 b33e
00000160: 018f 1d3d 0593 96bc e9b1 acbc 1568 763e
00000170: 07e5 283f fdd3 633e 7cfd 26bc 570b 6b3e
00000180: 6531 2d3e aad2 7cbe 7e05 cf3d 62e7 303c
00000190: fa48 493d b93a 8dbe 5a8c 683d e295 773d
000001a0: ebe2 583e 8c26 02be 9675 36be 2a22 b63e
000001b0: 8697 f53c f115 35bf f2e7 3abe 8e48 a03e
000001c0: 62f5 7f3e 1890 0fbe c118 3b3c 695d c4bd
000001d0: 1e68 b83d ded0 60bf 97b7 8bbc 4c13 00be
000001e0: 4bf5 413d 3b39 433f c4f6 36be 23ac d53d
000001f0: 3588 83bc b716 4abe ba9e 3bbe 8272 2d3d
00000200: dbbd 103d c9c6 243f 8fed 7e3d 7389 77be
00000210: f53f a03d 1a50 60be e69c 883c c644 7ebe
00000220: c992 213e 8d1f 423f b235 7e3d e02f b03e
00000230: e832 073e 04a8 81be 9945 8f3d 78c0 8a3e
00000240: 82de 4ebe c899 3dbd 83a2 6fbc 7205 1a3e
00000250: b777 343e c82b f73d 4d00 673c 91b7 543e
00000260: 52ca 07bd 7ec8 1b3c 2b27 45bd 1848 0a3e
00000270: 5643 16bd 88ef 32be fe39 cd3b 0047 f73d
00000280: 5cbb d03c f90a 51bc a2f6 d13b 974b 99bb
00000290: 090e 94be 197d ecbe 38f0 f83c 4292 a2bc
000002a0: 2b28 0d3e a419 e4be 67c6 bd3d a9eb 65bd
000002b0: 7619 49be b775 31be 5de3 033d 6477 e4bd
000002c0: 4e6a 9e3e 523b 94be 9097 8d3d 8521 823d
000002d0: 04f9 41be d541 95be 5bd1 dc3d 74af 233e
000002e0: f409 da3e eed7 b8be 56cb 483d 39fa a73d
000002f0: e168 12be 4d69 3cbe 7664 0d3d e91f cc3d
00000300: 73e7 e2bb 8ac5 1d3f f4cf 26bc a420 023e
00000310: 49fc 51be 5743 9ebe 845a 83bc e2c3 ac3d
00000320: 9535 f4bd f7f2 3d3f e2af bebd 9128 653e
00000330: 9ee4 7fbd 6005 2bbf e721 d4bd 0bfc 6c3e
00000340: 1fbf 23bd f731 2e3f 7201 353c 9e64 b3be
00000350: ea6c fa3c 8335 8ebf 9793 5c3c ab2c a5be
00000360: 8c65 793d 58e3 cfbc 84d2 f53d d468 99be
00000370: 9db7 2abe 24dc 0bbf 7088 c43d b21e acbe
00000380: 60d4 a23d 5c5f f6bd 833a 923c bfbb 77bd
00000390: 67c8 51be b692 7dbf 753d 2e3c de6e 30bd
000003a0: 37bb da3d 95b5 f1bd 3fce 3dbd 3aed 28be
000003b0: 1709 27be 1c5e b9bf 05bf d0bd af34 14be
000003c0: 4f0a 1bbc 9520 4abe 5775 123d 9311 c03d
000003d0: b267 d4be 2771 ac3c a9dc 113c 6d86 193d
000003e0: 8b82 36bd 1eb4 a5bd db02 d0bd 819c 3cbe
000003f0: 5b2d 5d3e 1b72 7f3d b6ea 13be 9ae8 09be

fc1.bias f4 [400]
0.22926119 0.019402206 -0.13743146 0.06802891 -0.10059144 -0.23457785 -0.09848125 -0.4180662
-0.038769998 -0.15096757 -0.3478308 -0.2969469 -0.12655902 0.09057822 0.07053731 -0.43958244
0.09388191 -0.0448202 -0.25160637 0.11568561 -0.3197069 0.0484773 -0.45352247 -0.44057855
-0.08907538 -0.40131417 -0.3953619 0.42704844 0.046861544 -0.26902494 0.34399766 0.23968425
0.17514302 0.31110182 -0.0944285 -0.00041169827 0.11541404 -0.37936702 -0.12207336 -0.46116674
-0.26272118 -0.2934123 0.096247695 -0.043451175 -0.16814807 0.3174962 -0.01617428 -0.19526772
0.19433053 -0.6324013 -0.048503798 -0.1669882 0.14591548 0.0077499654 -0.1828178 -0.17646569
0.04364073 0.023873398 0.050460923 0.09482564 0.048840698 0.12179716 -0.25731474 -0.16667835
0.19104141 -0.11729894 -0.21162428 -0.3164168 -0.15801835 -0.050452266 -0.06866795 -0.25869232
0.07353842 -0.20223486 -0.3885109 -0.12483582 -0.31699678 -0.54656434 -0.040724315 -0.004864849
0.18243712 -0.014112361 -0.2805409 -0.2326073 0.066676095 0.020132685 -0.011805906 -0.39451236
-0.44749424 -0.07061964 -0.023829447 -0.20440564 -0.22987057 -0.30784294 -0.20635684 0.0117774345
-0.35779822 -0.19721828 -0.47006255 -0.19375283 0.33677095 -0.591118 -0.049829215 -0.00944167
-0.08778057 -0.031515457 -0.109126344 -0.37370917 0.028491417 0.036643766 -0.42586738 -0.41543996
0.04771891 -0.013288311 -0.24919568 -0.20502797 -0.1726886 -0.03777589 -0.19508441 0.19441164
0.046568073 0.03419016 -0.079330884 -0.56679523 -0.2750227 0.1961078 0.17616358 -0.254381
0.036102936 0.18285854 0.038059447 -0.20956473 -0.21426073 0.024803525 0.30748644 0.08179401
-0.061206076 0.044995066 -0.15899533 -0.23380715 -0.24299334 -0.39905432 -0.13512817 -0.17739531
-0.27084637 0.20890455 0.123920865 -0.313277 -0.082392536 -0.2131044 -0.19062237 -0.0735097
0.2786024 -0.07185662 0.065681055 -0.38174087 -0.04237987 -0.16859521 -0.37433505 0.09199806
-0.18733315 0.14811623 0.15611978 0.27395386 -0.33635828 -0.11425506 0.090864934 -0.1454488
-0.21637625 -0.14867093 0.07097707 -0.43025792 -0.119869575 -0.22264972 -0.3193894 -0.10331388
-0.17278416 0.07083469 -0.50592214 -0.3121743 0.13989016 -0.3803526 -0.2208096 -0.35220096
-0.2837095 -0.0656871 -0.21294855 -0.15032826 -0.1974109 -0.32094774 0.1437676 -0.24152386
-0.07373849 -0.13903657 -0.15889631 -0.0027664253 -0.14195423 -0.44636306 -0.17232922 -0.14068237
-0.08717843 0.23654658 -0.12648988 0.02493579 0.17398462 0.075099364 -0.2947225 -0.06625442
0.2842791 -0.0023632536 0.11312584 -0.14421602 -0.53661656 -0.15321612 -0.12059501 0.013915728
-0.16579191 -0.25805384 -0.27049285 -0.2512091 -0.39970368 0.045249335 -0.028288271 -0.56141245
-0.15659718 -0.23790686 -0.1169849 -0.20052564 -0.03890769 -0.61803895 -0.20178153 -0.33597028
-0.14166641 -0.10464749 -0.47391322 -0.13793135 0.054685757 -0.38630393 -0.17900206 -0.09808025
-0.020509748 0.076387115 -0.19403672 -0.2059961 0.016702361 -0.085383974 -0.013454911 0.43067652
-0.25253257 -0.42759413 -0.39014947 -0.32133266 0.20376416 -0.040512934 -0.13296926 0.08459825
00000000: 72c3 6a3e 60f1 9e3c d5ba 0cbe be52 8b3d
00000010: e302 cebd 2d35 70be 8ab0 c9bd c60c d6be
00000020: 4acd 1ebd 3e97 1abe e116 b2be 6d09 98be
00000030: b098 01be 1381 b93d dd75 903d f310 e1be
00000040: 2945 c03d 6395 37bd 8dd2 80be 94ec ec3d
00000050: 9fb0 a3be 2290 463d 1934 e8be 8393 e1be
00000060: 276d b6bd 0d79 cdbe e06c cabe 18a6 da3e
00000070: e4f1 3f3d a3bd 89be 7620 b03e ca6f 753e
00000080: b158 333e bd48 9f3e bb63 c1bd 35d9 d7b9
00000090: 325e ec3d 653c c2be 9901 fabd 0c1e ecbe
000000a0: 6483 86be 233a 96be 831d c53d dcf9 31bd
000000b0: 022f 2cbe dd8e a23e ec7f 84bc 43f4 47be
000000c0: 95fe 463e 0de5 21bf ebab 46bd f4fe 2abe
000000d0: de6a 153e 6cf3 fd3b 9734 3bbe 6cb3 34be
000000e0: 9fc0 323d 2592 c33c 1db0 4e3d f233 c23d
000000f0: 2f0d 483d ca70 f93d c2be 83be bbad 2abe
00000100: 5ca0 433e 6d3a f0bd 09b4 58be 6201 a2be
00000110: 90cf 21be 09a7 4ebd c8a1 8cbd 5273 84be
00000120: 509b 963d a816 4fbe e7ea c6be eca9 ffbd
00000130: 674d a2be a4eb 0bbf 8ace 26bd 5069 9fbb
00000140: ccd0 3a3e 8837 67bc 0fa3 8fbe 9c30 6ebe
00000150: 7a8d 883d 4ded a43c 8f6d 41bc 86fd c9be
00000160: f71d e5be 08a1 90bd f935 c3bc b64f 51be
00000170: 3163 6bbe 979d 9dbe 354f 53be 24f6 403c
00000180: 5431 b7be 97f3 49be 0aac f0be 2467 46be
00000190: 3e6d ac3e 8253 17bf b819 4cbd 3cb1 1abc
000001a0: 4dc6 b3bd 5a16 01bd a27d dfbd cf56 bfbe
000001b0: d566 e93c c617 163d 4a0b dabe 8cb4 d4be
000001c0: e774 433d 37b7 59bc 272d 7fbe daf2 51be
000001d0: 48d5 30be e4ba 1abd 35c4 47be d813 473e
000001e0: 2abe 3e3d fb0a 0c3d 3b78 a2bd 7e19 11bf
000001f0: c6cf 8cbe 7cd0 483e 3a64 343e 3a3e 82be
00000200: ace0 133d 453f 3b3e 39e4 1b3d 2398 56be
00000210: 2a67 5bbe c330 cb3c dd6e 9d3e 9e83 a73d
00000220: 39b3 7abd bf4c 383d accf 22be 246b 6fbe
00000230: 3fd3 78be d950 ccbe 0a5f 0abe 1ea7 35be
00000240: 60ac 8abe 13eb 553e 39ca fd3d d865 a0be
00000250: 6bbd a8bd 0a38 5abe 8332 43be 418c 96bd
00000260: f9a4 8e3e 9029 93bd ca83 863d 8a73 c3be
00000270: 8496 2dbd 39a4 2cbe d8a8 bfbe 7b69 bc3d
00000280: 43d4 3fbe c8ab 173e dddd 1f3e ae43 8c3e
00000290: 2737 acbe 8ffe e9bd 6517 ba3d 88f0 14be
000002a0: bc91 5dbe 313d 18be 6d5c 913d c44a dcbe
000002b0: 2e7e f5bd 4afe 63be 0287 a3be 3a96 d3bd
000002c0: 55ee 30be c711 913d 1d84 01bf 4fd5 9fbe
000002d0: 5e3f 0f3e 93bd c2be e91b 62be af53 b4be
000002e0: 5f42 91be f586 86bd 2f0f 5abe a7ef 19be
000002f0: 1526 4abe 4353 a4be d037 133e 0852 77be
00000300: 3504 97bd 9a5f 0ebe b7b5 22be ea4c 35bb
00000310: 735c 11be b389 e4be 1277 30be 0a0f 10be
00000320: 9b8a b2bd 4439 723e 9086 01be 2446 cc3c
00000330: 0629 323e b2cd 993d dee5 96be 66b0 87bd
00000340: 088d 913e d1e0 1abb 85ae e73d 5dad 13be
00000350: b45f 09bf b0e4 1cbe 84fa f6bd cbfe 633c
00000360: 5bc5 29be a21f 84be 0a7e 8abe 7b9e 80be
00000370: f6a5 ccbe 5e57 393d cebc e7bc bab8 0fbf
00000380: 035b 20be db9d 73be c795 efbd 9856 4dbe
00000390: ac5d 1fbd cd37 1ebf d19f 4ebe 4c04 acbe
000003a0: 0011 11be 6c51 d6bd c1a4 f2be e03d 0dbe
000003b0: 2cfe 5f3d a1c9 c5be 514c 37be 4cde c8bd
000003c0: 0f04 a8bc d970 9c3d 90b1 46be a4f0 52be
000003d0: 64d3 883c cbdd aebd fd71 5cbc a281 dc3e
000003e0: f34b 81be 9eed dabe acc1 c7be b785 a4be
000003f0: 8da7 503e e4f0 25bd 1829 08be d941 ad3d

fc2.weight f4 [300, 400]
0.012823714 0.056989674 -0.0849757 -0.23515789 0.100920655 0.037447374 0.2698714 -0.18685754
-0.097011656 -0.16022354 -0.031015484 -0.32777897 -0.056525975 -0.14354411 0.20018071 -0.30342135
0.2497628 -0.070028916 0.1200951 0.14935243 -0.09689211 0.006175927 0.005461421 0.07704026
0.023900522 -0.06170405 0.020154823 0.46148154 0.21430357 -0.02786538 0.04485926 0.13147122
0.25307265 -0.6169353 0.13422994 0.048647538 -0.044589404 0.13237081 0.20899916 0.09030282
0.2045538 0.18453866 -0.0676137 0.054723326 -0.022385277 -0.29711944 0.017492058 -0.15853925
0.10161779 -0.20717841 0.2456403 0.05257527 -0.28882694 -0.4441235 -0.21763034 -0.39462447
-0.15511517 -0.18659773 -0.09929114 0.054201555 -0.11951674 0.21834284 -0.55794245 0.08380994
0.09888182 -0.057299234 0.30663058 -0.06096374 0.2110243 -0.33430475 0.40863976 -0.071670055
-0.48642159 -0.07112125 -0.19771837 -0.21311952 -0.22152086 -0.089196004 0.03535875 -0.2995083
-0.034332804 0.0004015288 -0.10969993 -0.036271747 0.28790933 0.1913132 0.18344635 -0.1393722
0.35547772 0.15753818 -0.096939765 -0.16327597 0.06556356 -0.28230688 -0.40850928 0.3204634
-0.3449607 0.11263267 -0.22439994 -0.0206364 -0.3731545 0.06519241 -0.33895957 -0.115412526
-0.20043273 -0.23000266 -0.27680993 0.046177413 0.014989925 -0.19259335 0.071706824 -0.1261881
0.102951445 0.21631803 -0.03498601 0.013161548 0.122824006 0.22042622 0.18821177 -0.11132584
-0.36808148 -0.19184719 0.03242784 -0.096663035 -0.22371347 0.2911073 0.033913918 -0.0633663
-0.3988969 0.1105756 0.15873711 0.020987485 -0.11912393 0.044160753 -0.0031434048 0.022918522
-0.30897114 0.115112625 -0.4773012 -0.5472911 0.043306325 -0.057018146 -0.2110197 0.12763934
-0.3299784 0.13985199 0.41235015 0.16610795 -0.025339969 -0.09300773 -0.030922916 0.24531126
0.2845721 -0.06925542 -0.28924757 -0.17957671 0.21302441 0.22267736 0.1964147 0.070219584
0.015930163 0.09945958 0.09035191 -0.094586626 -0.2170229 -0.18402505 -0.359564 -0.3441438
0.25799474 -0.019322103 0.0687432 0.022262165 0.34454155 -0.018380934 -0.070940785 0.13062643
-0.15685172 -0.31561622 -0.21283281 -0.21114875 0.18646683 -0.102885604 0.0075870343 -0.16285557
-0.1736544 -0.091408566 -0.12924545 -0.19253175 -0.04719984 0.15437154 0.17717841 -0.10404693
-0.2053758 -0.026890427 0.08511697 0.12217678 -0.13575447 -0.36411065 -0.15111369 0.30588925
0.016725775 -0.3604834 0.029308826 0.17772861 0.24614911 -0.033440553 -0.29690924 -0.58416754
-0.12625104 -0.24790846 0.12409335 0.040009122 -0.35322133 0.019376406 0.08059634 -0.49739608
-0.18281657 -0.36429057 0.23614845 -0.08725749 -0.055691067 -0.012610184 -0.06665116 -0.005663937
-0.087117836 0.06668694 -0.27456602 -0.10897966 0.040646028 -0.17930925 -0.15194856 -0.22536328
-0.07225955 -0.038352743 0.16542856 -0.2614088 0.23981312 0.04419055 -0.12445767 0.123247825
-0.14246315 -0.6290636 -0.18110187 0.071821384 0.08796962 0.1130196 0.16576767 -0.15954554
0.1253586 0.29724 0.12343415 -0.25182384 -0.21848826 -0.043012742 -0.33501562 0.16800986
00000000: 8e1a 523c 016e 693d bd07 aebd 3bcd 70be
00000010: 7daf ce3d 6b62 193d 962c 8a3e 9557 3fbe
00000020: 0cae c6bd a411 24be 2f14 febc a5d2 a7be
00000030: c887 67bd 3afd 12be 2cfc 4c3e 0b5a 9bbe
00000040: d2c1 7f3e 526b 8fbd 6bf4 f53d d8ef 183e
00000050: 5f6f c6bd 6e5f ca3b b8f5 b23b 49c7 9d3d
00000060: 07cb c33c 63bd 7cbd ba1b a53c 4f47 ec3e
00000070: 6572 5b3e f045 e4bc 58be 373d 64a0 063e
00000080: bd92 813e 79ef 1dbf 9373 093e a442 473d
00000090: 61a3 36bd 378c 073e e003 563e aff0 b83d
000000a0: 8d76 513e b4f7 3c3e 0d79 8abd 9125 603d
000000b0: 5461 b7bc 0a20 98be 814b 8f3c 1d58 22be
000000c0: fd1c d03d 9426 54be 2189 7b3e 2b59 573d
000000d0: 20e1 93be 2864 e3be 7dda 5ebe 380c cabe
000000e0: 83d6 1ebe 7a13 3fbe 2759 cbbd 7302 5e3d
000000f0: 31c5 f4bd 4495 5f3e 51d5 0ebf 8ca4 ab3d
00000100: 8d82 ca3d 9ab2 6abd affe 9c3e 1db5 79bd
00000110: c116 583e fe29 abbe 3b39 d13e c0c7 92bd
00000120: 400c f9be 05a8 91bd af76 4abe 013c 5abe
00000130: 5dd6 62be 65ac b6bd 56d4 103d 2759 99be
00000140: 8ea0 0cbd 4984 d239 5baa e0bd af91 14bd
00000150: da68 933e 9ce7 433e 5cd9 3b3e 96b7 0ebe
00000160: 2d01 b63e b051 213e 5b88 c6bd d131 27be
00000170: 3046 863d 878a 90be 2128 d1be c713 a43e
00000180: b09e b0be f5ab e63d 19c9 65be ab0d a9bc
00000190: 1b0e bfbe 9983 853d 1c8c adbe 675d ecbd
000001a0: 3d3e 4dbe d185 6bbe 08ba 8dbe 8724 3d3d
000001b0: 4d98 753c 3137 45be 07db 923d 7437 01be
000001c0: 35d8 d23d 7982 5d3e 7e4d 0fbd 89a3 573c
000001d0: 278b fb3d 69b7 613e 96ba 403e cdfe e3bd
000001e0: 2d75 bcbe 9773 44be 0ed3 043d 45f7 c5bd
000001f0: 2515 65be 040c 953e 52e9 0a3d 31c6 81bd
00000200: 373c ccbe 7675 e23d fb8b 223e f2ed ab3c
00000210: 3ff7 f3bd e8e1 343d 9501 4ebb a0bf bb3c
00000220: 7731 9ebe 2bc0 eb3d d360 f4be 451b 0cbf
00000230: f961 313d dc8b 69bd 8c15 58be e3b3 023e
00000240: eef2 a8be 5c35 0f3e 8f1f d33e 3418 2a3e
00000250: c495 cfbc d67a bebd 0e52 fdbc e032 7b3e
00000260: 6fb3 913e c9d5 8dbd 4218 94be f5e2 37be
00000270: 1223 5a3e 8905 643e ef20 493e 49cf 8f3d
00000280: f97f 823c 77b1 cb3d 6c0a b93d a2b6 c1bd
00000290: 403b 5ebe 1071 3cbe c618 b8be 9e33 b0be
000002a0: e317 843e 6349 9ebc 3cc9 8c3d 255f b63c
000002b0: c067 b03e 9d93 96bc 6749 91bd efc2 053e
000002c0: bd9d 20be 7398 a1be d8f0 59be 6137 58be
000002d0: 29f1 3e3e b0b5 d2bd a89c f83b 9cc3 26be
000002e0: 76d2 31be 6a34 bbbd eb58 04be 0b27 45be
000002f0: 9f54 41bd 9313 1e3e 426e 353e 8f16 d5bd
00000300: 094e 52be 5049 dcbc ce51 ae3d d237 fa3d
00000310: 3803 0bbe b66c babe 8cbd 1abe 849d 9c3e
00000320: 7e04 893c 4891 b8be 1019 f03c 7dfe 353e
00000330: 830e 7c3e f6f8 08bd 7d04 98be 018c 15bf
00000340: f447 01be b7db 7dbe a724 fe3d 9be0 233d
00000350: 6dd9 b4be 45bb 9e3c b20f a53d b3aa febe
00000360: 4434 3bbe 4b84 babe e6d0 713e 0eb4 b2bd
00000370: 511c 64bd f29a 4ebc 6780 88bd 8c98 b9bb
00000380: d66a b2bd 2a93 883d eb93 8cbe ba30 dfbd
00000390: 737c 263d d89c 37be 6798 1bbe a2c5 66be
000003a0: d1fc 93bd c417 1dbd 1b66 293e 60d7 85be
000003b0: 9291 753e 2601 353d aae3 febd 5b69 fc3d
000003c0: dce1 11be 500a 21bf c572 39be 1717 933d
000003d0: 6b29 b43d d276 e73d 00bf 293e e85f 23be
000003e0: 015e 003e d72f 983e 0bcb fc3d 0eef 80be
000003f0: 63bb 5fbe 212e 30bd 2b87 abbe c70a 2c3e

fc2.bias f4 [300]
0.07047158 -0.3169716 -0.07296676 -0.05493911 -0.10690477 -0.016907709 -0.292248 -0.050423753
-0.044113383 -0.048270345 -0.051434387 -0.06672902 -0.041405875 -0.08507237 -0.124888755 -0.047905255
-0.38334662 0.1830648 -0.015670493 -0.053519797 -0.048911143 -0.08117893 -0.20456913 -0.07438477
-0.029130677 0.055297814 -0.13740505 -0.11638412 0.01236838 -0.2782538 0.011418647 -0.08680438
-0.066671595 -0.14939645 -0.068352416 0.058388885 -0.07240476 0.009368303 -0.07131769 -0.0926184
-0.12058179 -0.18692496 -0.023947526 -0.030943597 -0.045180578 -0.008565788 -0.057099234 -0.15820394
-0.26117742 0.23446181 -0.12945586 -0.046951514 -0.17054956 -0.10087201 -0.35416958 -0.03445006
-0.048488036 -0.17424822 -0.2677161 -0.0770281 -0.10102771 -0.055171777 -0.016192215 -0.2400834
-0.01379404 -0.077223025 -0.14619033 -0.22210982 0.043941606 -0.013072329 -0.018164286 -0.12279887
-0.07753494 -0.2549882 0.010628553 0.16541243 -0.01653671 -0.007120491 -0.17268786 -0.21143177
0.009303121 -0.09481365 -0.2869777 -0.118826106 -0.105044834 0.19829562 0.10897067 -0.1259939
-0.061842013 0.011357803 -0.02252468 0.07017622 0.103655055 0.0149852205 -0.087029494 -0.022899196
0.20255691 -0.29146907 -0.0177904 -0.028329033 -0.06441544 -0.08346217 -0.069415666 -0.0782038
-0.11958178 -0.059513304 -0.26143464 -0.15331167 0.03323419 -0.3323696 0.18274605 -0.320205
-0.055154137 -0.060022745 0.18494202 -0.18859743 -0.19564001 -0.059731662 -0.10202401 -0.10542651
-0.1137076 -0.25523415 -0.0047921417 -0.12278757 0.008168728 0.002795486 -0.15966097 0.025226895
-0.117147185 -0.34755388 -0.03245652 -0.031202007 -0.18540959 -0.069110475 -0.12348145 -0.118618734
-0.0812298 -0.09568338 -0.035421673 -0.08345344 -0.17522645 0.07626143 -0.10425095 -0.26269493
-0.15331103 -0.20919791 -0.15600045 -0.23187582 -0.08407473 0.015493865 -0.0800633 0.066847354
-0.45119303 -0.114818715 -0.18916412 -0.15267514 0.057437364 -0.2954873 -0.02126267 -0.16370873
-0.30159053 -0.107723735 -0.0378952 -0.13847928 -0.12420951 -0.16268924 -0.023014128 -0.15196794
-0.17235741 -0.026990589 -0.07092676 -0.068479575 -0.16919068 -0.06375544 -0.23824094 0.00066745834
-0.026845999 -0.032644413 0.04963185 0.057090193 -0.089518376 0.014790961 0.026070703 -0.06743665
-0.018561672 -0.03676842 0.1410645 -0.040816102 -0.058894683 -0.35457718 -0.08827296 -0.23081444
0.027207432 -0.06135399 -0.17838822 -0.4461186 -0.26477218 -0.020248791 -0.0384584 -0.031235266
-0.027753511 0.15120348 -0.07529485 -0.08633368 -0.22645493 0.14652292 0.036452577 -0.0767047
-0.038899977 -0.080040224 -0.064867616 -0.11659414 -0.073792666 -0.18633612 -0.21588416 -0.024452457
-0.16647206 -0.028971387 -0.1131531 -0.15215771 -0.15219325 -0.19659497 -0.2761641 -0.0118666105
0.0014703479 -0.011893734 -0.14708063 -0.26491296 -0.14721245 -0.08954002 0.0049942546 -0.009789679
-0.05524327 -0.051633455 -0.12271688 -0.07232336 -0.08428192 -0.2788788 -0.15507501 -0.04122709
-0.2875779 0.1243035 -0.12615728 -0.10547382 -0.18429706 -0.20521025 0.07525265 -0.07081352
-0.06451 0.008876664 -0.16240734 -0.05132278 -0.27678785 0.1279473 -0.09646599 -0.03269793
00000000: 6753 903d 1a4a a2be 996f 95bd d507 61bd
00000010: e3f0 dabd 0982 8abc 88a1 95be 2389 4ebd
00000020: 3cb0 34bd 20b7 45bd ddac 52bd 39a9 88bd
00000030: 3599 29bd 6c3a aebd adc5 ffbd 4d38 44bd
00000040: 0246 c4be 5775 3b3e 685f 80bc 9337 5bbd
00000050: 0d57 48bd 2441 a6bd 927a 51be 0b57 98bd
00000060: 75a3 eebc f67f 623d e9b3 0cbe cc5a eebd
00000070: bfa4 4a3c 4877 8ebe 4715 3b3c 7fc6 b1bd
00000080: 1e8b 88bd 62fb 18be 5afc 8bbd 2f29 6f3d
00000090: f248 94bd 837d 193c 020f 92bd b7ae bdbd
000000a0: 96f3 f6bd 4269 3fbe 9a2d c4bc 6d7d fdbc
000000b0: 450f 39bd 8557 0cbc e3e0 69bd 3700 22be
000000c0: 0cb9 85be c216 703e 1490 04be 3b50 40bd
000000d0: 8ba4 2ebe fc95 cebd b755 b5be 821b 0dbd
000000e0: 649b 46bd 206e 32be 1612 89be e9c0 9dbd
000000f0: 9ee7 cebd cdfb 61bd 89a5 84bc 6cd8 75be
00000100: 6600 62bc 1b27 9ebd ebb2 15be c270 63be
00000110: 1dfc 333d 522d 56bc 45cd 94bc f97d fbbd
00000120: a3ca 9ebd d08d 82be 6223 2e3c e061 293e
00000130: ff77 87bc 0253 e9bb 16d5 30be 9281 58be
00000140: 1e6c 183c a92d c2bd beee 92be 1a5b f3bd
00000150: bf21 d7bd 020e 4b3e 042c df3d 8b04 01be
00000160: 0d4e 7dbd 1416 3a3c ad85 b8bc 8db8 8f3d
00000170: 1a49 d43d 9284 753c 853c b2bd 1897 bbbc
00000180: 146b 4f3e 6f3b 95be 2cbd 91bc 4a12 e8bc
00000190: 3eec 83bd 37ee aabd cd29 8ebd 5029 a0bd
000001a0: 4be7 f4bd 39c4 73bd c3da 85be bcfd 1cbe
000001b0: 9320 083d 592c aabe c821 3b3e e9f1 a3be
000001c0: 4ee9 61bd 69da 75bd 7161 3d3e af1f 41be
000001d0: db55 48be 30a9 74bd f7f1 d0bd dbe9 d7bd
000001e0: 88df e8bd 0dae 82be 6607 9dbb 0d78 fbbd
000001f0: 21d6 053c 7934 373b 2a7e 23be a2a8 ce3c
00000200: ddea efbd 95f2 b1be 21f1 04bd 5a9b ffbc
00000210: 03dc 3dbe cb89 8dbd d8e3 fcbd 61ee f2bd
00000220: cf5b a6bd a6f5 c3bd 5116 11bd a3e9 aabd
00000230: 906e 33be f42e 9c3d 8681 d5bd f37f 86be
00000240: 91fd 1cbe fa37 56be 95be 1fbe db70 6dbe
00000250: 5f2f acbd fbd9 7d3c 3af8 a3bd 44e7 883d
00000260: c602 e7be 1326 ebbd 3db4 41be df56 1cbe
00000270: 7143 6b3d 1d4a 97be 0d2f aebc 43a3 27be
00000280: 136a 9abe 439e dcbd ff37 1bbd 83cd 0dbe
00000290: 8e61 febd 0298 26be 2088 bcbc 7c9d 1bbe
000002a0: 767e 30be 5e1b ddbc 0d42 91bd 053f 8cbd
000002b0: 5240 2dbe 3692 82bd 6ff5 73be 5ff8 2e3a
000002c0: 24ec dbbc 26b6 05bd c44a 4b3d 68d7 693d
000002d0: 6955 b7bd c955 723c 3a92 d53c 3a1c 8abd
000002e0: a60e 98bc 7c9a 16bd 3673 103e c92e 27bd
000002f0: 8d3b 71bd 248b b5be 74c8 b4bd 9f5a 6cbe
00000300: 1fe2 de3c 524e 7bbd 67ab 36be a869 e4be
00000310: 3890 87be cbe0 a5bc 8e86 1dbd 1ae1 ffbc
00000320: 555b e3bc 16d5 1a3e 3034 9abd b6cf b0bd
00000330: cde3 67be 1b0a 163e 4c4f 153d 5b17 9dbd
00000340: 9555 1fbd 21ec a3bd 50d9 84bd e9c8 eebd
00000350: 9c20 97bd e5ce 3ebe bd10 5dbe 8550 c8bc
00000360: a777 2abe 6755 edbc d0bc e7bd 3bcf 1bbe
00000370: 8cd8 1bbe 3150 49be 6265 8dbe 2c6c 42bc
00000380: b0b8 c03a f0dd 42bc 4e9c 16be aca2 87be
00000390: dcbe 16be c260 b7bd d8a6 a33b e464 20bc
000003a0: c446 62bd 9a7d 53bd fd52 fbbd 451e 94bd
000003b0: 009c acbd 34c9 8ebe fccb 1ebe bddd 28bd
000003c0: 693d 93be d592 fe3d 602f 01be a802 d8bd
000003d0: 5eb8 3cbe a322 52be 101e 9a3d ae06 91bd
000003e0: d21d 84bd 6d6f 113c 1c4e 26be d637 52bd
000003f0: 23b7 8dbe 9e04 033e f68f c5bd 44ee 05bd

fc3.weight f4 [2, 300]
0.08324996 -0.14972787 0.040177148 -0.02307393 0.005258075 -0.026341362 -0.002439929 0.12746517
0.020947132 0.041523233 0.003917254 -0.01814391 -0.014662031 -0.044722226 -0.014693301 0.59337896
-0.12946765 0.23362754 -0.0052362876 -0.022918735 -0.10681318 -0.009930895 0.33148527 -0.008404955
-0.0017439651 0.18293747 0.01909212 -0.0036703858 0.21472135 0.19203067 -0.14294764 0.0143167805
0.018060902 -0.1354423 -0.0011991892 -0.081899755 -0.008543417 -0.009516275 0.05804336 0.0024298476
-0.015061952 0.2531537 0.016550185 -0.046809975 0.08820698 0.19157179 0.023544926 -0.270241
-0.09069765 -0.09006212 0.017446587 -0.055356722 0.048841953 0.03953793 -0.07566443 -0.2656615
-0.008805913 0.090067826 -0.041105248 0.13098425 -0.05395338 0.0081911525 -0.0014133039 -0.25669214
-0.5725 -0.028421855 0.06406845 -0.12520204 -0.36408544 0.035570174 -0.005449601 0.0056966413
0.001165114 -0.14464402 -0.057249244 -0.11766832 -0.002340121 0.0005433901 0.002761452 0.10643756
0.013408798 0.35840356 -0.0684682 -0.030566117 -0.015501724 1.0095048 -0.49394235 0.012323467
0.0012932634 0.8818002 0.01939981 -0.11011483 0.181348 0.059914418 -0.35096642 0.0042712726
-0.092645265 0.11921544 0.21894965 0.00074782135 0.09301619 0.019517751 0.026228962 0.05692434
0.056942675 0.0074711014 0.37123686 -0.046684828 0.02907326 -0.05083916 -0.20289895 -0.15592773
0.15110824 0.0055027003 -0.34036556 -0.16115257 -0.33916864 0.052892048 -0.00070630334 0.0057637463
0.08411005 0.1250897 0.3018339 -0.0041353554 -0.10013012 1.1448429 0.11389129 0.10139929
-0.011262603 0.036911875 -0.30881402 0.002009898 0.35735536 -0.005248299 -0.011872015 0.11033924
0.016546646 0.024420066 0.014171992 -0.060454156 0.27869523 -0.27663335 -0.034074664 0.09519039
-0.15877476 -0.2741443 1.0354326 -0.11313556 -0.022015868 0.15687902 0.0066981176 -0.07107158
0.13430968 0.010083573 0.4059599 0.036685083 0.07562746 -0.26960367 0.037435275 -0.18295309
0.11081825 -0.016204981 0.051182788 0.065382294 -0.008412067 0.04924288 -0.008003619 0.008146734
-0.14801215 -0.2735454 0.00974492 -0.0045413803 -0.0070788884 -0.074466 0.101861775 0.009333862
0.016585734 -0.20425378 0.07742737 -0.06863947 0.16213834 -0.07450334 -0.41362655 0.0155604705
0.0013603171 0.0019358692 0.8743581 -0.0009501951 0.16858254 0.24902646 0.21026224 0.08129388
-0.13464995 -0.012754857 0.14330967 0.44985318 0.23241805 -0.22907934 0.021728292 -0.017572656
-0.011763923 1.0552801 0.005993787 0.0014557039 -0.22543365 0.03561972 -0.014917792 -0.007435928
-0.0045288806 -0.021327227 -0.0111541655 -0.22606787 -0.032310467 0.08167502 -0.099994704 0.3007917
-0.102472015 4.065006e-05 0.02569322 0.119309165 -0.054040562 -0.068987235 -0.11554442 0.57013017
-0.82308537 0.019050827 -0.016326828 -0.07263155 0.33482766 -0.05168919 -0.006799264 0.019802472
0.0056089284 0.0117259165 -0.52346665 -0.006280966 -0.00088621076 0.24077448 -0.040161833 0.006039887
0.04078398 0.4716309 0.2552967 0.044982307 0.49996883 0.2130345 0.36767787 0.03819726
-0.0020954455 0.35633507 -0.09461212 0.049687468 -0.054701395 0.011919391 0.007556782 0.012025493
00000000: f47e aa3d 4352 19be cb90 243d 8a05 bdbc
00000010: ee4b ac3b d7c9 d7bc 37e7 1fbb 3b86 023e
00000020: 5299 ab3c 4414 2a3d 4f5c 803b 8aa2 94bc
00000030: 0439 70bc a72e 37bd 2cbc 70bc afe7 173f
00000040: 2b93 04be 0f3c 6f3e 2a95 abbb 12c0 bbbc
00000050: dec0 dabd 31b5 22bc 70b8 a93e f0b4 09bc
00000060: c295 e4ba f653 3b3e 1467 9c3c db8a 70bb
00000070: eadf 5b3e b0a3 443e de60 12be ee90 6a3c
00000080: 75f4 933c 63b1 0abe 1d2e 9dba 0fbb a7bd
00000090: b0f9 0bbc 26ea 1bbc e0be 6d3d 143e 1f3b
000000a0: 68c6 76bc 5d9d 813e 4194 873c d1bb 3fbd
000000b0: dca5 b43d 652b 443e 4ae1 c03c 075d 8abe
000000c0: b1bf b9bd 7d72 b8bd 25ec 8e3c bbbd 62bd
000000d0: 800e 483d 86f2 213d f4f5 9abd c904 88be
000000e0: ad46 10bc 7b75 b83d fa5d 28bd bc20 063e
000000f0: 38fe 5cbd 2f34 063c 9c3e b9ba 276d 83be
00000100: 5c8f 12bf f3d4 e8bc 5236 833d f734 00be
00000110: 6869 babe 08b2 113d 9192 b2bb e4aa ba3b
00000120: bdb6 983a 901d 14be 2f7e 6abd 17fc f0bd
00000130: b75c 19bb 4b72 0e3a 7af9 343b effb d93d
00000140: 93b0 5b3c ac80 b73e 0e39 8cbd cb65 fabc
00000150: f1fa 7dbc 7437 813f 03e6 fcbe 5ee8 493c
00000160: b882 a93a a8bd 613f 5aec 9e3c e283 e1bd
00000170: 4ab3 393e d268 753d dfb1 b3be 08f6 8b3b
00000180: cdbc bdbd 3927 f43d 5634 603e 7109 443a
00000190: 467f be3d b1e3 9f3c 1fde d63c 7f29 693d
000001a0: b93c 693d 24d0 f43b c212 be3e 9738 3fbd
000001b0: 0c2b ee3c b93c 50bd bec4 4fbe 85ab 1fbe
000001c0: 1ebc 1a3e ff4f b43b 6544 aebe 2e05 25be
000001d0: 83a7 adbe 55a5 583d 3727 39ba cfdd bc3b
000001e0: e441 ac3d 8417 003e f989 9a3e e081 87bb
000001f0: 0511 cdbd 368a 923f d63f e93d 6eaa cf3d
00000200: c886 38bc e830 173d df1c 9ebe 7eb8 033b
00000210: 48f7 b63e ecf9 abbb d782 42bc 8af9 e13d
00000220: d58c 873c 970c c83c a531 683c c79e 77bd
00000230: 24b1 8e3e e3a2 8dbe e091 0bbd 2ef3 c23d
00000240: da95 22be a45c 8cbe 0e89 843f 9eb3 e7bd
00000250: 9f5a b4bc e5a4 203e e27b db3b fa8d 91bd
00000260: 7a88 093e 9235 253c fad9 cf3e 1943 163d
00000270: 92e2 9a3d 7e09 8abe bb55 193d 0e58 3bbe
00000280: aef4 e23d 4fc0 84bc 0ba5 513d 27e7 853d
00000290: c4d2 09bc e7b2 493d 9c21 03bc e179 053c
000002a0: 7f90 17be 250e 8cbe 28a9 1f3c dccf 94bb
000002b0: 05f6 e7bb a181 98bd e89c d03d 0eed 183c
000002c0: cede 873c e727 51be 3e92 9e3d da92 8cbd
000002d0: 9807 263e 3595 98bd dcc6 d3be 58f1 7e3c
000002e0: ab4c b23a febc fd3a efd5 5f3f 8416 79ba
000002f0: e7a0 2c3e cb00 7f3e fc4e 573e 687d a63d
00000300: ade1 09be bff9 50bc c5bf 123e 2853 e63e
00000310: fffe 6d3e c693 6abe 88ff b13c 88f4 8fbc
00000320: 78bd 40bc 6b13 873f 8867 c43b 51cd be3a
00000330: 14d8 66be fce5 113d c169 74bc 16a9 f3bb
00000340: 0167 94bb 70b6 aebc f6bf 36bc 567e 67be
00000350: fb57 04bd 3c45 a73d 06ca ccbd 5f01 9a3e
00000360: d9dc d1bd ab7f 2a38 967a d23c 5d58 f43d
00000370: a359 5dbd 2e49 8dbd 8ea2 ecbd 0df4 113f
00000380: b9b5 52bf 7b10 9c3c d7bf 85bc dabf 94bd
00000390: 886e ab3e 0bb8 53bd 5ccc debb cb38 a23c
000003a0: 1acb b73b 0f1e 403c e901 06bf 90d0 cdbb
000003b0: 9950 68ba 968d 763e bc80 24bd 3fea c53b
000003c0: 1a0d 273d 9b79 f13e 40b6 823e 5e3f 383d
000003d0: eafb ff3e b725 5a3e 4640 bc3e bb74 1c3d
000003e0: be53 09bb 8d71 b63e 00c4 c1bd 1685 4b3d
000003f0: 920e 60bd 8d49 433c e29e f73b 9306 453c

fc3.bias f4 [2]
-0.015180599 -0.13199106
00000000: 0cb8 78bc aa28 07be
