checkpoint_actor1.pth (torch_old, 524633 bytes, 6 tensors)

fc1.weight f4 [400, 24]
000000 44 cc 72 3d c3 62 05 bf bd 9b 16 bd c2 be 9c 3d
       0.059276834 -0.52103823 -0.036769617 0.07653572
000010 c2 1d 21 be 09 4c 92 be fb b7 8d bd e3 8d 01 3e
       -0.15734008 -0.28573635 -0.06919857 0.12651782
000020 e2 45 bb 3d 16 51 0a bf ca 46 3d 3c 8b f2 cf 3e
       0.091441885 -0.5402998 0.011552522 0.40614733
000030 f4 87 87 3e b4 c2 f1 bd db 54 6e 3c 84 7d d9 3e
       0.26470912 -0.11804715 0.014546598 0.42478573
000040 a6 1e 07 3e 07 51 b1 be 39 a1 c2 bc 93 01 f1 3e
       0.13195285 -0.3463213 -0.023758518 0.47071514
000050 19 20 0f 3f 08 93 b9 bd 82 13 8c bd 30 2b ce 3e
       0.5590835 -0.09061247 -0.06839658 0.40267324
000060 4e 5c 90 3e d1 6f bb 3d 52 bf 7e bd c8 56 93 3e
       0.28195423 0.09152187 -0.062194176 0.28777146
000070 f0 3c 6f 3f c2 1d 66 be 70 8d 0a bd 8f f8 aa 3e
       0.9345236 -0.22472289 -0.03382629 0.3339276
000080 62 d7 55 3e eb cf 0d 3e 5e 8c 4e 3a bf 0d d5 3e
       0.20882943 0.13848846 0.00078791927 0.4161205
000090 b1 23 b2 3e 9a 1e 0e bd cb 2f 15 3d 96 4e d0 3e
       0.34792855 -0.034697153 0.036422532 0.40684956
0000a0 ce da 6d 3e 30 2b 6e 3e 5a 63 69 bd b1 c9 10 3e
       0.23227999 0.23258662 -0.056979515 0.14139439
0000b0 f0 b6 5e be d5 a9 58 3e 83 1d d1 bb 9e eb f9 3d
       -0.21749473 0.21158536 -0.006381692 0.122031435
0000c0 b3 d9 b6 3e a6 8a a8 3d ea 73 5a bc 22 cc e8 3d
       0.35712966 0.0822957 -0.0133333 0.1136706
0000d0 c7 35 64 3d a9 f2 f5 bd 41 04 f4 39 98 07 fc 3d
       0.05571535 -0.120091744 0.00046542476 0.12306136
0000e0 5a f7 b7 3e 5d 97 ed 3d 08 fa 78 bd b0 b3 8b be
       0.35930902 0.11601136 -0.060785323 -0.27285528
0000f0 4f 54 fb 3d d6 6f 33 be f2 7a 0e be 93 03 84 be
       0.1227194 -0.17523131 -0.13914087 -0.25783977
000100 50 dc b5 3e ab 5b 62 3d dc d1 f0 3c 36 65 e8 be
       0.35519648 0.055263203 0.029396944 -0.45389718
000110 c9 05 49 3e 39 f8 58 be c1 5a 80 3d 51 b4 fc be
       0.19631113 -0.2118844 0.0626731 -0.4935632
000120 15 b5 05 3f 95 b0 8d bc 0d 61 2e bd 9c d7 b0 be
       0.52229434 -0.017296115 -0.042573024 -0.34539497
000130 d9 39 fe 3d fb 81 4a be a7 b9 11 bd 28 a5 ae be
       0.12413377 -0.19776146 -0.035577442 -0.3411038
000140 b7 7e 24 3f 32 87 2a 3d d4 3c 16 bd f2 d9 bb be
       0.6425585 0.04163284 -0.036679104 -0.36689717
000150 8c 13 b2 3d f7 32 6e be 90 01 01 3c dd fa af be
       0.086951345 -0.23261629 0.007873908 -0.3437108
000160 a9 17 fe 3e dd 59 c2 bd 49 85 5a be b8 78 77 be
       0.49627426 -0.09489796 -0.21339907 -0.24167144
000170 9f 99 89 bc ac e9 62 be 0e 5f 4f be 99 6a 81 be
       -0.016796885 -0.22159451 -0.20251104 -0.2527664
000180 bf a7 ff 3d 6a fa ff 3e b2 fa 1a bc b9 32 ef be
       0.12483167 0.49995738 -0.0094591845 -0.46718386
000190 b3 e8 aa bc 93 a1 15 be 77 3d 5c bd 4e c7 d5 be
       -0.020862913 -0.14612417 -0.053769555 -0.4175362
0001a0 18 a2 18 3d 17 7c 94 3e d8 c3 ab bd 37 33 87 be
       0.03726396 0.29000923 -0.083869636 -0.2640626
0001b0 7f 60 2f be 50 62 bd bd 80 a8 b4 bd e2 0c 9d be
       -0.17126654 -0.09247267 -0.08821201 -0.3067389
0001c0 e8 63 15 3e 6c 37 68 3e 2a 0a 6b bd 3b f1 e2 be
       0.14588892 0.22677392 -0.05738274 -0.4432467
0001d0 a4 27 42 be c1 14 d6 bd a7 d5 af bd 96 e3 f1 be
       -0.18960434 -0.10453177 -0.08585673 -0.47243947
0001e0 67 cb e1 bd 70 54 45 3f b8 f9 10 bd 42 70 6c be
       -0.11025124 0.77081966 -0.0353944 -0.23089698
0001f0 37 8f dd 3b 08 4d 18 be 44 99 23 bd 3b f5 95 be
       0.0067614573 -0.14873135 -0.039941087 -0.29288658
000200 39 50 ba bd 58 a9 35 3f a2 a8 1f 3c bf 82 0e be
       -0.090973325 0.70961523 0.009744795 -0.13917063
000210 96 f7 bd 3d 2e c0 ff be a7 b4 12 bd ef 3d 15 be
       0.09275739 -0.4995131 -0.035816815 -0.14574407
000220 c0 a2 c5 bc 43 72 47 3f ea 69 d9 bd 78 1e ed bc
       -0.024125457 0.77908725 -0.10615905 -0.028945193
000230 3f fd 46 3e 08 86 8b bf 26 3f c9 bd 51 06 d1 bd
       0.19432543 -1.0900278 -0.09826498 -0.10206283
000240 ed 6e 2e 3e 50 1e 5a 3f 22 3f 8a bd 86 1e 5e be
       0.17034502 0.85202503 -0.06750323 -0.21691331
000250 52 bb 66 be 8e 29 13 be 8b d5 1e bd de 6b 23 be
       -0.22532395 -0.1437132 -0.03877787 -0.15959117
000260 cd 47 44 3e 41 dd 1a 3f 97 17 52 bd a3 e8 9c be
       0.19168015 0.60493857 -0.05129203 -0.30646238
000270 63 13 7b be b7 09 92 be 80 6b 4b 3b f4 3a a4 be
       -0.24519114 -0.28523037 0.0031039417 -0.32076228
000280 f3 28 26 3e d3 2e 03 3f de 0a f8 bd cd 7f 2f bf
       0.16226558 0.51243323 -0.12111448 -0.68554384
000290 6b 03 81 be 5d a0 30 bf 5c ee c6 bd d2 61 33 bf
       -0.2519792 -0.68994695 -0.09713432 -0.70071137
0002a0 f1 84 e6 3e 92 fe 21 bd 50 30 1d 3d ca 0c 9b 3e
       0.450233 -0.039549418 0.038376153 0.30283195
0002b0 b7 ab 51 be c1 87 11 bf f7 f2 b4 bc b3 58 7d 3e
       -0.2047566 -0.5684777 -0.02208851 0.24740867
0002c0 11 92 c3 3e 15 df b4 3d 5c b0 9f bd 2f 2d 89 3e
       0.38197377 0.08831612 -0.0779731 0.26792285
0002d0 83 19 9a be b9 72 55 bf 35 ed 20 bd d6 7c ba 3e
       -0.3009759 -0.8337818 -0.03928872 0.36423367
0002e0 e5 94 ba 3e 16 7f 32 3e 02 57 7a bd 54 8a 7f bd
       0.36441723 0.17431292 -0.061118133 -0.06238778
0002f0 57 ef 9a be 16 3f 75 bf da de 9a bd 43 3f 37 bd
       -0.30260727 -0.95799387 -0.07562037 -0.044738065
000300 14 fb 19 3e 4d da ae 3e 81 42 a7 3b 92 2b 73 be
       0.15037185 0.34150925 0.0051043634 -0.2374709
000310 e7 3f 8f 3d 06 ca d2 be a7 3f 44 ba f3 74 8f be
       0.0699461 -0.41169757 -0.00074862916 -0.28018913
000320 7d e1 c3 3d 86 16 6b 3e 29 2c 70 bc 43 d3 ac be
       0.09564493 0.22957811 -0.014658966 -0.3375493
000330 a0 7d 27 3e bf 2e 08 bf 7a de cd bc 8b e9 a8 be
       0.16356516 -0.5319633 -0.0251305 -0.3299068
000340 cf e1 b2 3d 4f 64 44 3e 3d 1d 30 be b0 1a 1d 3d
       0.08734476 0.1917889 -0.17198654 0.03835553
000350 13 3f 45 3e 49 20 2f bf 1b a4 2d be 93 6c 87 3d
       0.19262342 -0.6840864 -0.16957133 0.06612506
000360 1f 75 71 3d f5 83 45 3d 0c 4b 70 bd 32 84 7f be
       0.058949586 0.048221547 -0.05866532 -0.24952772
000370 c9 c8 e4 be 4c 3f 61 be bc 6f a9 bd 07 78 92 be
       -0.44684437 -0.21996802 -0.08273265 -0.286072
000380 0f 68 f3 3b 6c b3 d0 3d 27 fb a3 bd c2 9e bc 3d
       0.0074281762 0.10190472 -0.08006888 0.09209968
000390 0d f0 28 be 2a 58 a8 be 29 c2 b2 bd 5e 45 e0 3d
       -0.16497822 -0.32879764 -0.08728439 0.10950731
0003a0 70 64 9a 3d 06 d2 84 3e 04 e1 90 bd 8a 57 2b 3e
       0.07538688 0.25941485 -0.07074168 0.16732612
0003b0 3e 53 03 3e 48 be f3 be 83 5c 01 be 0c 10 40 3e
       0.12824723 -0.4760611 -0.12632947 0.18756121
0003c0 0b a5 ff 3e 2d a8 45 3c 11 98 7a 3b 32 8e 94 3e
       0.49930605 0.012064022 0.0038237611 0.29014736
0003d0 66 af 8c 3e bc 37 72 be e0 a9 bc bc 30 75 6f 3e
       0.27477568 -0.23654073 -0.023030221 0.23384547
0003e0 c0 4b 90 3e 45 7f 09 3e 15 32 bb bd 17 39 8e bd
       0.28182793 0.13427456 -0.09140412 -0.06944483
0003f0 96 1e dd 3d ff b9 09 be 51 82 09 be c3 45 a3 bc
       0.107968494 -0.13449858 -0.13428618 -0.019930726

fc1.bias f4 [400]
000000 70 56 c8 3d ef 06 17 3e 18 8f a8 bd fa a9 b6 bc
       0.09782112 0.14748739 -0.08230418 -0.022297848
000010 34 f1 4a be 95 6e be 3d 59 3c 2b 3e 35 cc 8e bd
       -0.19818574 0.092984356 0.1672224 -0.06972543
000020 09 ad 1e be 56 48 c0 be 33 93 5a be 8f e1 c0 be
       -0.15495695 -0.37555188 -0.21345215 -0.37672088
000030 5f ce 05 3d 4f 41 01 bf b8 f1 ba bc 31 2b cf be
       0.032667514 -0.5049028 -0.022820339 -0.4046264
000040 37 af 20 be 5a 91 10 bf c4 3d dd be 3a 31 81 be
       -0.15691839 -0.5647179 -0.43211186 -0.2523287
000050 ae cc 65 be 84 e8 a4 3e 8c 64 cd be 09 80 eb be
       -0.2244136 0.32208645 -0.40115774 -0.4599612
000060 3d 76 95 be 44 5b 89 be c1 80 7c 3d 30 de aa bd
       -0.2919177 -0.26827443 0.061646227 -0.0834316
000070 75 16 e5 be bd b4 1b bf c2 f6 1a bd 8a ad 8b 3d
       -0.44743696 -0.6082266 -0.037832983 0.06820209
000080 5f 05 a8 bd 3f 5b 43 3c 56 3c 0c bd ba 20 a8 bd
       -0.082041495 0.01192361 -0.03423723 -0.08209367
000090 ee 97 10 bf d4 ac eb be 9e 76 d7 3d 26 a4 b9 bd
       -0.56481826 -0.46030295 0.10520671 -0.09064512
0000a0 25 de 4b 3e 9f fc 92 be 13 70 09 be 72 bc 80 3e
       0.1990896 -0.2870836 -0.13421659 0.25143772
0000b0 7e 0e f8 3d e7 66 69 3e 91 2d 5d bd b1 c8 79 3e
       0.12112139 0.2279316 -0.053998534 0.24392964
0000c0 59 3b a7 3d f3 6b ca be 32 db eb bd d4 cb d6 be
       0.081656165 -0.39535484 -0.115164176 -0.41952384
0000d0 1b b5 1b 3e a2 71 5e be df 4e b3 be 47 fc af be
       0.15205805 -0.21723035 -0.3502111 -0.3437216
0000e0 89 76 fb 3d bf 06 c0 3e 42 02 af 3e 6c bb 4f be
       0.12278468 0.37505147 0.3418141 -0.2028634
0000f0 87 8a b8 bd 69 49 70 3e 2b a8 16 bf 33 ac 02 3e
       -0.09010797 0.23465504 -0.58850354 0.12761001
000100 96 fc 27 be ad 44 57 bd c5 fb b3 be 70 61 94 3d
       -0.16404948 -0.05255573 -0.35153022 0.07245147
000110 3c 53 59 3e 8d 94 ec bd c5 61 90 be 00 66 71 be
       0.21223158 -0.11551771 -0.28199592 -0.23574066
000120 2b 8b 03 3f 8d 0b b3 bd 04 21 4a be d7 11 ae 3d
       0.5138423 -0.087424375 -0.19739157 0.084994964
000130 b9 c3 92 bd 9d e4 b0 be 4f 86 2c bd fe 42 29 3e
       -0.071662374 -0.34549418 -0.042120274 0.16529462
000140 22 bd 92 be a3 45 c9 bd b2 9a a3 be 58 8c d2 bd
       -0.28659922 -0.09827735 -0.3195396 -0.10280675
000150 b7 2f 49 be 59 44 b0 bd c6 1f 3b be c9 da ab be
       -0.19647108 -0.08606786 -0.1827384 -0.33565357
000160 20 4f 8a be db 40 51 be d4 06 9f be d8 29 29 be
       -0.27013493 -0.20434897 -0.31059897 -0.16519868
000170 9f 9f 57 be 5c 9a 03 be b7 61 9c be 8f d7 d0 3d
       -0.21056984 -0.12851852 -0.305433 0.101973645
000180 32 25 1d bf 16 42 50 be c2 c9 7e bd bf 6f 43 be
       -0.6138488 -0.2033771 -0.06220413 -0.19085597
000190 4c 2c ba bc 70 6b b4 be 2d 15 e4 bd 7d 23 f7 bc
       -0.0227262 -0.35238218 -0.111368515 -0.03016829
0001a0 05 c3 9d 3e f8 3d 97 be 6e 9f 11 3e 9a 0d 15 bf
       0.3081285 -0.29539466 0.14220974 -0.5822388
0001b0 5c b1 60 3e d3 dc 2c be 47 e9 c3 bd 9f ad 3f bf
       0.21942657 -0.16881113 -0.095659785 -0.748743
0001c0 ea de 26 3e 37 9e 84 bc 7c 62 d5 3c 39 f8 b5 be
       0.16295972 -0.016188724 0.026047938 -0.3554094
0001d0 fc 6e f0 be aa ca c6 3d 2a 96 80 be 94 1f 38 bd
       -0.46959674 0.09706624 -0.25114566 -0.04495199
0001e0 95 49 18 be 70 a6 87 be 85 a9 a9 bc 0c 9e d1 bd
       -0.1487182 -0.2649417 -0.020710716 -0.10235223
0001f0 12 fd 87 3e 67 a6 09 3e 6e 24 36 be 3c eb ad be
       0.26560265 0.13442384 -0.17787334 -0.33968532
000200 c9 f4 ef be 6f c3 58 be df dd a4 bd 0e 46 89 be
       -0.46866444 -0.21168302 -0.08050131 -0.2681126
000210 84 e2 63 bd f4 cf 40 be 00 d3 7b 3e 97 08 3a 3d
       -0.055635944 -0.18829328 0.24592209 0.04541835
000220 6a d7 76 3c 4c 86 8e 3e 22 7a 91 3d ab a5 ae be
       0.015066007 0.27836835 0.07103373 -0.3411077
000230 12 f3 80 be a9 85 b0 be 5b 9d 93 bd 42 51 99 3d
       -0.25185448 -0.34476975 -0.072077475 0.07486202
000240 45 d3 9e be 8e ed 15 3c 25 47 90 be 21 4e 28 bf
       -0.3102056 0.009150876 -0.2817928 -0.65744215
000250 95 26 d2 bd 56 8a b9 3d 2e 50 5f be 61 c2 5e be
       -0.10261265 0.090595886 -0.2180793 -0.21753837
000260 ca f5 23 3e 35 ce fb 3c 52 fb f7 3c 08 b6 83 be
       0.1601173 0.030737976 0.030271206 -0.25724816
000270 d8 31 f7 bd 1f aa 74 3e 46 c1 3f be 3b a0 49 be
       -0.12070054 0.23893021 -0.18726072 -0.1969003
000280 5f d5 07 3e 55 28 04 be fd 99 c3 be d8 6f 52 3d
       0.13264988 -0.1290601 -0.3820342 0.051376194
000290 ad 02 36 be 45 48 9c be 6f 1a ae 3e 37 48 0b 3e
       -0.17774458 -0.30523887 0.34004542 0.13601767
0002a0 9d 8e 31 be 52 50 73 be b7 78 e9 bd d8 00 22 bf
       -0.17339559 -0.23761109 -0.11399978 -0.6328254
0002b0 1e df 6c be 4a ab 66 bd 30 f7 38 be 20 df ea bd
       -0.23131987 -0.056315698 -0.18063045 -0.11468339
0002c0 0c 4d 5e 3e 6d 63 08 3d d4 cf 01 bf e4 49 1a 3d
       0.21709079 0.033297945 -0.50707746 0.037668124
0002d0 3d bf 85 3c ce 94 b0 bd 9c b5 9d be 00 75 8b be
       0.016326541 -0.08622132 -0.3080262 -0.272377
0002e0 ee ad d9 be 52 2b 4e bd 08 26 ec bb 09 0d 74 be
       -0.4251551 -0.050334282 -0.007206682 -0.23833098
0002f0 cd 97 37 bd ea 2e 0f bf 6c e5 c0 3e 1a 3e 0d bf
       -0.044822503 -0.5593096 0.37675035 -0.55172884
000300 55 09 a1 be 73 29 85 3e be ed 9e be 80 56 7d 3e
       -0.31452432 0.26008186 -0.31040758 0.24740028
000310 e6 07 90 be a5 d4 03 bf 55 71 24 be 0f 41 14 bc
       -0.28131026 -0.51496345 -0.16058858 -0.009048714
000320 df 2e be be 0b 8c 81 bd b4 4a c3 be 7b af 3f be
       -0.37145135 -0.06325539 -0.3814293 -0.18719284
000330 ab 37 11 3e 25 3e 98 3d 1b 76 a1 be 8e 0f d5 3e
       0.14181392 0.07433728 -0.3153542 0.4161343
000340 f3 5a 85 3e 0a 6f 78 be b1 3c 6d 3e 1d 35 b9 3d
       0.2604595 -0.24261108 0.23167683 0.09043334
000350 49 d2 c3 be db c5 89 3c a7 4f c4 be 57 ee ee 3b
       -0.38246372 0.016817978 -0.3834202 0.007291596
000360 24 c6 cb be 8e d9 9d be 33 e3 e4 be 59 54 ec bd
       -0.39799607 -0.30830044 -0.4470459 -0.115395255
000370 df 29 6d be 4a 7d 80 bd b9 51 b8 3e f0 da e7 be
       -0.23160504 -0.06273897 0.3599985 -0.45284224
000380 61 f8 f7 3d 88 d6 ae be 79 ce 87 bd a8 52 90 be
       0.121079214 -0.3414805 -0.066311784 -0.28188062
000390 95 1e 60 bd 93 d5 ee be 54 a1 21 be d1 cb 4a be
       -0.054716665 -0.4664732 -0.15784198 -0.19804312
0003a0 d2 8a 8b be 52 da 9e be 29 93 96 be 7b 23 7c be
       -0.2725435 -0.3102594 -0.2940915 -0.2462291
0003b0 38 cb 9f be 4a 30 0e bf 2d 86 18 3d 61 c6 1a be
       -0.3120973 -0.55542433 0.037237335 -0.15114738
0003c0 ab 17 1f bd 9a 39 55 ba 09 01 bd be 22 47 84 be
       -0.03884093 -0.00081338885 -0.36914852 -0.2583552
0003d0 9e 40 88 bd 96 5e 87 3d 82 44 73 bd a5 3c 25 3e
       -0.0665295 0.06609838 -0.059391506 0.16136415
0003e0 74 0b 4c be 29 64 28 bf 83 2d 83 be db 6b 95 be
       -0.19926244 -0.6577783 -0.2562066 -0.2918385
0003f0 da a1 71 3c f9 73 d1 3d 53 53 3c 3e 69 f3 ee bd
       0.014748061 0.10227198 0.1839116 -0.116675206

fc2.weight f4 [300, 400]
000000 5a 1b 61 3d 44 37 e4 3c f4 e2 29 bd be 54 b5 3d
       0.054957725 0.027858384 -0.041476205 0.08854054
000010 78 a4 66 bc 16 78 16 bd bf 11 5c 3c 6a f2 4d bd
       -0.014077298 -0.036735617 0.013431965 -0.050280012
000020 bf d9 72 bc 77 97 4d be 9a 45 73 3c 66 59 9f bd
       -0.0148224225 -0.2007731 0.014848137 -0.07780723
000030 5c 23 38 bd c4 30 6f 3c 07 1f 7c bd 08 fb 80 bc
       -0.044955596 0.014599029 -0.061553027 -0.015744701
000040 f5 4d 21 be 28 17 93 3d be 43 b9 3d c2 d9 b1 bd
       -0.15752394 0.07182151 0.09046124 -0.08684112
000050 c7 ca 4c bd 4c 99 f8 bd 6a 71 ee 3d 8b bd 1f bc
       -0.04999807 -0.12138614 0.11642726 -0.00974978
000060 81 2c 05 bd ef 41 22 be 58 5f 33 be 9c 8a 01 bd
       -0.032513145 -0.15845464 -0.1751684 -0.03162633
000070 7d ec 6d 3d b0 21 e9 bd 42 50 3d be cf f3 59 3d
       0.05808686 -0.113833785 -0.18487647 0.05321103
000080 ac 52 1e bd da 1c f3 bc 46 20 77 3c 4f da 3b be
       -0.03865306 -0.029676843 0.015083378 -0.18344997
000090 a1 ea c7 3d 9b 69 d8 bd 05 39 f4 3c 56 dc 3a 3a
       0.09761549 -0.10567018 0.029812345 0.00071281695
0000a0 fa c2 11 bb b1 3a 41 be 52 d2 e6 bd 50 3f 69 be
       -0.002224146 -0.18870045 -0.11270584 -0.22778058
0000b0 de b3 40 bd d1 2c a1 bd 0e 84 e5 3c 7b 84 ae bc
       -0.047046535 -0.07869876 0.02801707 -0.021303406
0000c0 0c 8a 94 3c ee c7 69 bc 0e 09 0e be a8 13 e7 bd
       0.018132232 -0.014268858 -0.13870642 -0.11283046
0000d0 e4 a9 fa bd e2 52 3b 3d 9e ea e2 bb 64 3f 66 bd
       -0.12239435 0.04573334 -0.006924941 -0.056212798
0000e0 8c 16 e3 bd 63 7d ce bd 51 44 f7 bd 14 84 13 be
       -0.11088285 -0.10082509 -0.12073577 -0.14405853
0000f0 b7 05 2c bc 1a f3 05 bd 5a c1 b7 bd 63 8e 19 be
       -0.010499409 -0.032702543 -0.08972426 -0.14995722
000100 1c f5 24 bd b7 06 7b 3c 5e ab b4 bd 57 eb 20 bd
       -0.040272817 0.015321425 -0.08821748 -0.039286938
000110 e7 7f b4 bd e9 7b 08 3b cd 51 c4 bd a9 6e c5 bc
       -0.08813458 0.002082581 -0.09585915 -0.024100618
000120 0e c3 0e be 38 94 14 3e 8d ca 51 bc b2 fe 2b bd
       -0.13941595 0.14509666 -0.0128046395 -0.041990943
000130 4b 0e c2 bd 09 e7 ef bd f9 56 5e be 99 70 92 bc
       -0.094753824 -0.11713988 -0.21712865 -0.017875956
000140 c4 2d 19 bd 27 ff 0d bb b9 71 92 bc 80 0a e9 bc
       -0.03739716 -0.0021666975 -0.017876493 -0.02844739
000150 10 cd 94 3c 6a 93 1d bd a1 80 1e 3d 90 50 67 be
       0.018164188 -0.038470663 0.03869689 -0.22589326
000160 62 db 69 be fb 0c 7a 3d 34 1d 95 be ed 08 2c bd
       -0.22837594 0.061047535 -0.29123843 -0.0420007
000170 8c c3 04 be 4e 2b d0 bd 51 e1 34 be 40 a9 af bc
       -0.1296522 -0.1016451 -0.17664076 -0.02144301
000180 18 ec 83 bd 89 64 9e bd 16 19 cf bc 62 50 b1 3b
       -0.06441516 -0.07734019 -0.025280517 0.0054111937
000190 1d 41 27 bd 1c a0 ef bd 6c ba 29 bd f8 2e 8d bc
       -0.04083358 -0.1170046 -0.04143755 -0.01723431
0001a0 7b 72 3d 3d 5c fe e9 3d 6c 80 ad bd 7c 62 2d 3e
       0.046251755 0.11425468 -0.0847176 0.169321
0001b0 1e c3 d7 bd 84 14 f4 bc d8 5d 18 be 6e db 03 3e
       -0.105352625 -0.029794939 -0.14879549 0.12876675
0001c0 aa 39 03 bd bd 94 46 bb ca d2 d9 bb 50 4a f0 3b
       -0.032037415 -0.0030301057 -0.0066474425 0.0073330775
0001d0 13 6c ea bd ee 6b 66 3c aa db 47 3e db 0b 9d 3d
       -0.11446395 0.014063818 0.19517389 0.07668277
0001e0 9d 66 60 bd a4 fc 05 bd 92 86 1a be 44 a3 45 3d
       -0.05478536 -0.03271164 -0.15090397 0.048251405
0001f0 24 ea 31 bd c6 3f 7a 3d a6 c7 61 be 9c a7 19 be
       -0.043436185 0.061095975 -0.22048816 -0.15005344
000200 a7 a7 00 be 07 24 8a 3d b8 42 2d bc 6d a9 23 be
       -0.12563954 0.06745153 -0.010574989 -0.159826
000210 a4 6a 13 3c ca 53 ab bc 3d 17 06 3b b6 32 1b 3c
       0.008997593 -0.020913977 0.0020460628 0.00947254
000220 ca a1 c8 3d d2 30 c7 ba 3b 87 aa 3d 0b dd 19 bd
       0.09796484 -0.0015197045 0.083265744 -0.03756432
000230 88 ed b7 bc c3 fc 42 be c0 ff c4 bd 62 c2 21 be
       -0.02245213 -0.19041733 -0.09619093 -0.15796807
000240 80 9b d6 bd 10 dc 6d bd d0 97 ac bc 3c 69 90 3d
       -0.10478878 -0.058071196 -0.021068484 0.07051322
000250 e4 00 f5 bd be 8c 05 3d d4 f2 3b 3d 1d 6c d4 bd
       -0.119630605 0.032604925 0.045885876 -0.103721835
000260 74 4b d7 bd 15 79 2d bd 97 10 04 bd 7b b7 65 3c
       -0.105124384 -0.0423518 -0.032242384 0.014020796
000270 ae e9 93 3b 2c 11 8c bd 37 dc f4 bd 5e 72 b2 3d
       0.004513941 -0.06839213 -0.11956065 0.0871322
000280 ba f1 41 bd 17 a5 aa bc b6 9d 74 3d eb 21 81 bd
       -0.04734967 -0.020830674 0.059720717 -0.063052975
000290 ca d1 13 bd 32 70 1a bd 7e 7e f1 bc 44 69 39 3d
       -0.036088742 -0.037704654 -0.029479261 0.045266405
0002a0 65 da c4 bc 36 9d 01 be ba f9 60 3d f9 43 70 bd
       -0.02402992 -0.12657627 0.054925658 -0.058658574
0002b0 ec 7f 3e bd 82 2c 62 bd d7 f0 f1 bc 80 ae c3 be
       -0.046508715 -0.055218227 -0.029533787 -0.3821907
0002c0 00 9b e2 3c 38 fd 3c 3d e3 d1 6b bd bc 88 81 bd
       0.0276618 0.046139926 -0.05757321 -0.06324908
0002d0 60 04 10 3e 33 2d b1 bc 51 37 81 bd d5 e2 33 bd
       0.14064169 -0.021627998 -0.06309379 -0.043917496
0002e0 96 21 62 3b 7e b4 d6 bd 49 f5 a0 be b8 4b 44 bb
       0.0034504882 -0.10483645 -0.31437138 -0.0029952358
0002f0 57 8f 0f bd 5a a5 31 bb ff 56 f2 bb 4d 08 95 3b
       -0.03504881 -0.0027106614 -0.0073956246 0.0045481087
000300 0e 32 39 bd e1 66 f5 bd b8 5c 03 be 25 b5 47 bd
       -0.04521375 -0.11982513 -0.12828338 -0.048756737
000310 b4 9e 1b bd 87 73 d8 bd 4a aa 8f bd 70 37 1f be
       -0.037993148 -0.1056891 -0.07014902 -0.15548491
000320 3f 1f b6 3d 8f ec be bd 22 d8 f5 ba cf 25 2f 3d
       0.088926785 -0.09322464 -0.0018756429 0.042760666
000330 9a 0a 26 be 63 bc 3a bd ac 8d c4 3c 84 96 15 bd
       -0.16214982 -0.045589816 0.023993336 -0.036520496
000340 0e 8c de bd 1b 8c e9 bd e2 14 0b 3d 30 3d 0b be
       -0.10866557 -0.11403676 0.033955462 -0.1359756
000350 cc 2e 53 3c 81 0d 1d bd e1 d9 ec bb 20 e0 70 be
       0.012889575 -0.038342956 -0.0072281216 -0.23522997
000360 2e f0 c6 bc 6b 0b 95 be a3 db 9c bc e9 b3 5d 3c
       -0.024284448 -0.29110274 -0.0191477 0.013531663
000370 4f 6e 95 be bc a9 3c be c2 f3 bd bd c8 b9 93 3d
       -0.2918572 -0.18424124 -0.09275009 0.07213169
000380 08 16 07 3c 79 31 4c bc 9f c6 d8 bc 69 9a 7a bd
       0.008244999 -0.012462967 -0.026461897 -0.061182413
000390 d7 69 56 be 06 34 28 be 96 04 b3 bc 93 36 c6 bd
       -0.20938812 -0.16426095 -0.021852773 -0.09678378
0003a0 83 a4 65 be 3c b7 25 be 68 24 81 bd f0 46 63 be
       -0.22426037 -0.1618318 -0.06305772 -0.2219503
0003b0 f5 f4 ca bd 8f b7 ce bc 8c ad 0e bd 30 ec 1b be
       -0.09910003 -0.025234012 -0.034833476 -0.15226817
0003c0 ca 3c e0 bd ee 5c 72 bc 27 76 7e be 2e a7 9f bd
       -0.109490946 -0.014792664 -0.24849759 -0.07795559
0003d0 f9 57 88 bd 26 ac 3b bd ef 49 93 bd e3 93 18 bc
       -0.066574045 -0.04581847 -0.07191836 -0.009312603
0003e0 87 8f 34 be 5e 7b eb bc 08 c6 a0 bb 76 6e 1d bd
       -0.17632876 -0.02874535 -0.0049064197 -0.038435422
0003f0 40 39 07 be f0 0a ef bd a4 c8 c4 bd 37 50 45 bd
       -0.13205433 -0.11672008 -0.09608582 -0.048172202

fc2.bias f4 [300]
000000 00 35 0f be d9 41 18 be 72 c1 1e bd ee 9f b3 3c
       -0.13985062 -0.14868869 -0.038758703 0.021926846
000010 c4 21 56 be 67 af 06 be 24 80 b4 bd c8 18 88 bd
       -0.20911318 -0.13152848 -0.088135034 -0.06645352
000020 7c 5c 24 bd b8 ca 66 bd 83 ad 6a bd 85 68 85 be
       -0.040127262 -0.05634567 -0.05729438 -0.26056305
000030 83 5f ce bd 26 09 09 be 38 c1 03 bd 35 1d 0b be
       -0.10076811 -0.13382396 -0.03216669 -0.1358536
000040 e9 b9 7b bd 3e e8 87 be 47 6f 3a be 99 da bf bc
       -0.061456595 -0.26544374 -0.18206511 -0.023419665
000050 43 b8 05 bf bb 5a 4b be 00 71 32 be 92 42 79 bd
       -0.52234286 -0.1985883 -0.17425919 -0.060854502
000060 a9 b3 45 bc 5e 9b 36 bc 94 d6 a3 bd 34 97 8e be
       -0.01206676 -0.011145441 -0.07999912 -0.27849734
000070 32 b1 71 bd de dd 53 bd 34 18 a3 be 21 54 9a bd
       -0.059006877 -0.05172526 -0.31854403 -0.075355776
000080 e0 0c f0 bc ad 1c 21 be d0 2e 99 bc f6 5e 70 bd
       -0.029303014 -0.15733595 -0.01869908 -0.05868431
000090 d2 48 af bd 6b c1 2b be 0a 5e 16 be 23 a3 58 be
       -0.08558811 -0.16773002 -0.1468431 -0.21155982
0000a0 8f b7 10 be bf 1c 9b bc 0b e2 d1 3b 52 41 54 bd
       -0.14132522 -0.018934606 0.0064051202 -0.051820107
0000b0 90 de 01 bd c2 99 37 be 20 f4 21 be b3 c5 c2 bd
       -0.031706393 -0.17929748 -0.15815783 -0.095103644
0000c0 c2 c7 50 bd 4d 20 1e bd 48 47 dc be 07 5f dd bd
       -0.050971754 -0.038605023 -0.43023133 -0.10809141
0000d0 7b 21 2f be 05 d8 cd 36 c3 af 49 3d 66 eb 5d be
       -0.17102616 6.134624e-06 0.049239885 -0.21671829
0000e0 49 65 af bc be fb d9 bc 65 0f eb bc 9e 66 58 bd
       -0.021410601 -0.026609298 -0.028693864 -0.05283224
0000f0 bd 28 0f 3e 22 60 97 bd 95 c4 1b be 23 63 6b bd
       0.13980384 -0.07391383 -0.15211709 -0.05746759
000100 ac 00 41 bd 8c 62 42 be b5 22 25 be 57 ea 85 bd
       -0.04711978 -0.18982905 -0.16126521 -0.065388374
000110 06 91 c8 3c 0d 07 f8 bd 9b be 84 3d c8 b8 a4 bd
       0.024483215 -0.1211072 0.064816676 -0.08043057
000120 57 55 bc bd 33 49 8d bd f4 d6 a0 bd 85 9e e1 3d
       -0.09195965 -0.06898727 -0.07853499 0.11016563
000130 06 bb 35 be 79 13 02 bd b6 17 99 bd b3 6e fd bd
       -0.17747125 -0.03175685 -0.074752256 -0.1237463
000140 8c 4b fd bd a8 98 fd bd b1 e7 bf bd f6 3f 38 be
       -0.12367925 -0.123826325 -0.093703635 -0.17993149
000150 34 a2 91 3b df fe 9f bd 11 b2 5a be de 5e 02 be
       0.004444385 -0.07812285 -0.2135699 -0.12731501
000160 13 8d 72 bd 12 60 2f be 5a d6 88 be 33 54 bd bd
       -0.05921657 -0.17126492 -0.26726037 -0.09244575
000170 38 4c d5 bd d6 b4 3f be 04 a0 c2 be ac 0b 43 bd
       -0.10414928 -0.18721327 -0.38012707 -0.047618553
000180 84 5e 60 bd 6f ad 69 bd 9c c1 94 bd a7 ef 9d bd
       -0.054777637 -0.057050165 -0.072634906 -0.07711726
000190 83 71 0a bc ca 86 71 bd 7e 28 a9 bd f4 53 3a be
       -0.008449915 -0.058966435 -0.082596764 -0.18196088
0001a0 a7 24 ba bd 07 67 19 bd a2 79 eb bd 39 94 bd bd
       -0.09089022 -0.03745177 -0.11497809 -0.09256787
0001b0 4c c3 f2 bd 04 02 b1 bd 09 fd 81 ba 44 4a 89 3e
       -0.11853656 -0.086429626 -0.0009917329 0.26814473
0001c0 92 51 5e be 1b e1 8e bd 30 80 7b 3c 23 5e 32 be
       -0.21710804 -0.06976529 0.0153503865 -0.17418723
0001d0 ec 4b 4d be 8b c4 d0 bd 60 46 14 bd eb 8c 83 be
       -0.20048493 -0.101937376 -0.036199927 -0.2569345
0001e0 bc 20 97 bc 55 2c 9c bc bb a5 19 be cd b5 c6 3d
       -0.018448226 -0.019064108 -0.15004627 0.097026445
0001f0 84 23 9e bd 59 d1 54 be 65 56 9c be 97 a4 7b be
       -0.07721618 -0.20782985 -0.30534664 -0.24574505
000200 62 03 12 3e 6a 09 68 3e c3 73 62 be 76 c8 f6 3b
       0.14259103 0.22659841 -0.22114472 0.007531221
000210 84 e9 41 be a2 66 0a bd e1 b1 92 bd 0f dc be be
       -0.18936735 -0.033789285 -0.07162834 -0.37277266
000220 c8 56 04 3d 79 ad 0d be 7b be 2c be f5 95 77 be
       0.032309324 -0.13835706 -0.16869538 -0.24178298
000230 be 07 70 be 31 bf 88 bd 35 05 25 3d eb e4 2c bd
       -0.23440453 -0.06677092 0.04028817 -0.0422105
000240 0c d9 cc bd 93 d1 ca be a2 84 1f bd 6f dc 21 be
       -0.10002336 -0.39613017 -0.038944848 -0.15806745
000250 45 89 89 bd f4 a3 28 be 0a 4e a2 bc 40 f9 d7 be
       -0.06715635 -0.16468793 -0.019812603 -0.4218235
000260 dd 01 85 bd b8 af 19 be e9 f6 03 be ab 0b 8b bd
       -0.06494496 -0.15008438 -0.12887157 -0.06789335
000270 a7 18 b7 bd b8 19 18 be 55 9a 18 bd ec 91 6c bd
       -0.08940249 -0.14853561 -0.037256557 -0.05775635
000280 f0 83 6e bd 93 2d d0 bd e4 82 a9 be 03 7a cc bd
       -0.058231294 -0.101649426 -0.33107674 -0.099842094
000290 5d 3c da bd b3 67 52 be d7 36 f0 bb 87 fd 64 be
       -0.10656045 -0.2054737 -0.007330756 -0.22362338
0002a0 8e 90 ac bd a1 84 8c bd dd 78 6f bc 58 22 7a bd
       -0.08426009 -0.068612345 -0.014616218 -0.06106791
0002b0 3d 3a a6 be 23 bc 8a bd 42 0b 3b bc 18 ca c3 b6
       -0.32466307 -0.067741655 -0.011416258 -5.8349797e-06
0002c0 05 db 7a bd 91 6c bf 3d 70 cd 81 bd 43 f0 d2 bd
       -0.06124403 0.09346879 -0.06338012 -0.102997325
0002d0 4a c3 9e bc 7a 73 4a 3e 19 2f dc bc 7d 6b 6c bd
       -0.01938023 0.19770613 -0.026877927 -0.057719696
0002e0 6f 0f 09 be 5f d9 9a bc 49 f1 e0 bd 43 93 9c bd
       -0.13384794 -0.018902479 -0.109835215 -0.076452754
0002f0 15 8e 76 3d ea 36 83 bd c6 5f 18 bc 33 5f 90 bd
       0.060194094 -0.064069584 -0.009300178 -0.07049408
000300 49 de 3b bb 31 4d 61 bd d6 76 81 bc ef 8a 61 bd
       -0.0028666428 -0.055005256 -0.015803736 -0.055064138
000310 9c 39 75 be 1e bf 67 bd 83 01 42 bd 25 fd af 3d
       -0.23947757 -0.056578748 -0.047364723 0.08593205
000320 22 5d 11 bd 33 8a 0e be fc 71 4e 3d e9 e6 5c bd
       -0.03548921 -0.13919906 0.050401673 -0.05393115
000330 51 9d 57 bb a1 af 65 3d 36 19 82 be b3 c8 6c bd
       -0.0032900164 0.056075696 -0.2540986 -0.05780859
000340 6c 7a 5e bd 1f b1 5a be f7 5e 95 be 17 84 6f bd
       -0.05431597 -0.21356629 -0.29174015 -0.05847558
000350 8f f5 32 bd a9 54 f7 bd 68 33 b4 be 73 b8 b5 bd
       -0.043691214 -0.120766945 -0.3519547 -0.088730715
000360 b6 9e b6 bd 16 28 64 bd a2 3d e2 bd 1e ba 8b be
       -0.089169905 -0.05570229 -0.11046912 -0.27290434
000370 55 7f 63 bc 94 53 15 be 80 aa 3c be f6 4e 4d bb
       -0.013885339 -0.14582664 -0.18424416 -0.0031327582
000380 1d d6 8a bd f0 63 11 bd 6f 81 41 bd be db e9 bd
       -0.0677912 -0.0354957 -0.047242578 -0.114188656
000390 6c ed e0 bd 64 5d db bd 85 e3 ae bc 5f be b5 bd
       -0.10982785 -0.10711172 -0.021348724 -0.08874201
0003a0 27 d9 a3 bd 9f d0 73 bd 2a 1d 45 bd af 37 a2 be
       -0.08000403 -0.05952513 -0.048123516 -0.31683108
0003b0 9a 35 89 bd 88 b4 1a be d8 2c 94 bd 21 ad 11 3e
       -0.06699677 -0.1510793 -0.07235116 0.142262
0003c0 09 63 8a bd 39 ed 48 bd 01 e5 a8 bc a8 67 1f be
       -0.06757171 -0.04905436 -0.02061701 -0.15566885
0003d0 f0 ce eb bd 9e 04 70 be 9e 15 bb bc e0 6d dc bd
       -0.115140796 -0.23439261 -0.022837456 -0.107631445
0003e0 7f 2c cb bd 1c c6 a0 be 12 6b 6f bd 02 fa 0a 3d
       -0.09920596 -0.31401145 -0.05845172 0.033929832
0003f0 12 a0 f9 3c f1 f8 46 bd 26 3f ab bd 10 19 55 3d
       0.030471835 -0.048577253 -0.08361654 0.052025855

fc3.weight f4 [2, 300]
000000 5f e5 b8 3d 1d 6f b0 bb bd 42 01 bc a1 2d af be
       0.09028124 -0.0053843395 -0.007889447 -0.342145
000010 ff f0 17 bd 95 9b 1c be 5c cb db 3c f5 44 2f 3b
       -0.037095066 -0.15293725 0.026830368 0.0026743982
000020 c8 2c ee bc 94 13 65 bc 91 cd 80 3d de e9 62 3e
       -0.029074088 -0.013981719 0.06289209 0.22159526
000030 d9 3d 02 bc fe a0 b2 bd 76 13 6a 3c 9d 27 0d bb
       -0.007949316 -0.08722113 0.014286866 -0.0021538504
000040 ec 13 f7 bd 2d 20 0d 3e 7d 1c 80 be 43 3d 3a 3a
       -0.12064347 0.13781805 -0.25021735 0.00071044656
000050 ac ac b2 bd 48 2d f4 be e5 69 46 3e 3c 5e 06 bd
       -0.08724341 -0.47690797 0.19376333 -0.032804713
000060 18 1e 40 bd 8e 53 b9 3b bb c5 8e bd f8 cf 86 3c
       -0.0469037 0.0056557124 -0.06971308 0.01645659
000070 83 04 4c 3e 68 ae c5 be 7c dd f1 3c bd 7b 16 bc
       0.19923596 -0.38609624 0.029524557 -0.009184775
000080 33 71 f9 3d 7b 22 d8 bd 62 ec 01 bc cb f7 d1 bb
       0.12179794 -0.10553452 -0.007929893 -0.006407713
000090 39 77 d9 3b b1 fc a2 be ff 02 f5 3b 08 02 d1 3d
       0.006636527 -0.31833413 0.007477164 0.102054656
0000a0 8f 1d a3 bc a3 43 24 be 00 f6 cd bb f5 8f 22 bb
       -0.019911556 -0.16041426 -0.006285429 -0.0024805043
0000b0 78 6a 3b 3d 87 96 3f 3f 48 4e aa be f3 4c 27 bd
       0.045755833 0.7483906 -0.3326285 -0.04084487
0000c0 a1 5b ff 3b 83 0e 51 3b ac b4 5e be 50 4f d7 bd
       0.0077929054 0.0031899519 -0.21748608 -0.105131745
0000d0 cf c8 c0 3b c7 a9 45 3d 2e 71 35 3e fc 59 ee 3e
       0.0058833132 0.048257615 0.17718956 0.46553028
0000e0 0d c5 63 3c a7 71 9b 3d 04 3d fa bb 5a 07 d4 3c
       0.013901961 0.07590037 -0.007636668 0.025882412
0000f0 8b cb c5 bd 98 63 81 bc 5e 80 ca 3b b4 b8 cb bb
       -0.09657963 -0.01579456 0.0061798533 -0.0062170867
000100 eb b1 8a 3e 7a 3b 0a bc 75 68 ab 3d 71 eb ad be
       0.27088866 -0.008437032 0.08369533 -0.3396869
000110 02 80 b0 be 7f e1 ed 3d 7e 0e 86 3d 12 d5 35 bc
       -0.34472662 0.116152756 0.06545733 -0.011098163
000120 33 10 c7 3d 5a b2 2d bd 32 e1 03 3e 45 56 9d 3c
       0.09719887 -0.042406417 0.12878874 0.019206176
000130 05 4a c1 be bd 7a 4d bc e0 41 62 3e 8f 30 85 be
       -0.37751785 -0.01254147 0.22095442 -0.2601361
000140 50 4b f5 bc 33 5b 02 bc 38 79 ad 3b e0 d1 f8 3c
       -0.029943138 -0.007956314 0.0052939914 0.030373514
000150 01 5c 46 be 99 d6 06 3d 29 d8 ab 3d 38 85 b2 3d
       -0.19371034 0.0329195 0.08390839 0.08716816
000160 91 fc ed bc 59 05 30 3e bf e6 74 3e 23 9e 10 3d
       -0.029051097 0.1718954 0.23916148 0.03530706
000170 25 de 4b 3c ec 77 92 be 83 ea e9 bc 95 d1 e0 3c
       0.0124431 -0.28607118 -0.028554207 0.027443687
000180 97 93 83 bc 95 38 ed 3c 98 23 9c 3c b3 24 5e bc
       -0.016061587 0.028957644 0.019059941 -0.013558554
000190 2b 1e a8 be a8 8a 12 bf 71 ae 81 bb 95 00 29 be
       -0.32835516 -0.5724282 -0.0039575626 -0.16504128
0001a0 da ce 14 3b 80 93 7b bd 7a ea 06 3d b0 41 32 3e
       0.00227063 -0.061419964 0.032938458 0.1740787
0001b0 ab 45 9c 3d d6 18 91 3c 50 87 48 bc 6c 0c 93 3b
       0.076304756 0.017712038 -0.012239292 0.004487565
0001c0 5a cb aa bd 6f aa 20 3d ef 75 15 bb 34 6e 86 3d
       -0.083395675 0.03922504 -0.002280589 0.06563988
0001d0 f5 68 81 3f 1c 65 7b bb 43 b9 23 3c 9c 5e 0f be
       1.0110155 -0.0038359826 0.0099929 -0.14000934
0001e0 ef a1 e4 3b be 19 c5 be 31 31 ba 3d da b5 88 be
       0.006977312 -0.38496202 0.09091414 -0.26701242
0001f0 86 b8 16 3c 2e 6b 39 be 73 d2 1c 3e 95 04 d5 be
       0.009199267 -0.18107292 0.15314655 -0.41605058
000200 1c 89 08 bd de 53 86 3d 1b 5c 0f bd 01 1b 18 be
       -0.033333883 0.06558965 -0.034999948 -0.14854051
000210 82 3a e7 3e 8a 3b e0 3f 1f 5d df ba 46 b3 de 3d
       0.45161825 1.751817 -0.0017041302 0.108740374
000220 52 e6 15 bc 1f 11 39 bc b5 bf c4 3d 41 66 5b 3c
       -0.009149151 -0.011295586 0.09606878 0.013391078
000230 11 f8 2e 3d 24 28 4e 3d ea 1f 5c bd 6f 94 9b 3c
       0.042717043 0.05033125 -0.053741373 0.018991677
000240 6a bc 9b 3d 26 b1 14 be d4 6b 9e 3d 6d 64 8c 3b
       0.076042965 -0.14520702 0.0773541 0.0042844326
000250 9e 8b 1a 3b 10 00 0b be a2 3b af 3c 4e d5 2a bd
       0.0023581753 -0.13574243 0.02139074 -0.04170733
000260 ba f8 90 3c d1 3b 2c 3d a2 78 7a bc 21 00 af bb
       0.017696727 0.042049233 -0.01528755 -0.0053405915
000270 64 b5 88 3b 3c dd 26 bc b0 ad 10 be aa 88 7f bc
       0.004172014 -0.010184582 -0.14128757 -0.015596548
000280 7c 54 22 3f 84 c2 08 3d 16 29 71 bd 26 91 ec bd
       0.6341016 0.03338863 -0.058877073 -0.11551122
000290 2a a6 3f bc e8 97 24 3e 13 dd 41 39 ce 09 a7 be
       -0.011697331 0.16073573 0.00018488271 -0.32624668
0002a0 7b 4c 87 bd 0c 15 0e 3d e9 f3 33 3d 54 dd 11 3d
       -0.06606384 0.03468804 0.043933783 0.035611466
0002b0 30 59 3c 3e 71 8c 09 3b 47 63 65 bc 90 54 a5 3c
       0.18393397 0.002098825 -0.01400072 0.020181924
0002c0 0f 1c 0a bd 29 93 12 bf ee 2c 73 bc 8a d2 98 bc
       -0.033718165 -0.572558 -0.014842255 -0.01865508
0002d0 2d 9f a7 bc f2 58 3c bd 0f 64 a6 3b 97 86 96 bc
       -0.020461643 -0.045983262 0.005077846 -0.018374724
0002e0 24 f5 d8 bd 7c 0f 50 3d 67 31 91 3c dd ce e7 3c
       -0.10593632 0.050796017 0.017723752 0.028296882
0002f0 f9 fa 89 bc b4 47 b8 bc 01 d0 1f 40 e0 f6 92 bb
       -0.016843306 -0.022495128 2.4970706 -0.004484996
000300 00 0b 2e 3c 46 6a ef bc 9c 81 33 3f 3b 22 57 bf
       0.01062274 -0.02922548 0.70119643 -0.84036607
000310 19 e6 88 bd 6c be 82 3d 15 7f 90 3c f8 46 b1 bc
       -0.06684513 0.06383976 0.017638722 -0.021640286
000320 77 36 f8 3c 3f b2 eb 3d 4a 63 61 bc 5a e9 32 bb
       0.030299408 0.11508607 -0.0137565825 -0.0027299733
000330 6f 78 3e be 2e 14 36 3c 3c 73 c9 bd 55 6d a7 3b
       -0.1860063 0.01111321 -0.09836432 0.005109469
000340 ea 94 46 3d be 19 4c 3d ba 5a e5 be c6 73 b5 be
       0.04848186 0.049829237 -0.4479578 -0.3543989
000350 a3 b4 a4 bd 28 ab a4 3d 0b bd 77 be 63 26 12 be
       -0.08042266 0.08040458 -0.24193208 -0.14272456
000360 08 04 4a 3c 24 50 2c 3e 84 72 67 3b 5c 91 a7 3d
       0.012330063 0.16827446 0.003531606 0.08182022
000370 65 6c f6 3b 95 aa 34 be c3 9d b1 bd 5c b5 94 3c
       0.007520246 -0.17643197 -0.08672669 0.018152885
000380 98 02 7a 3b c9 19 de 3c 5f e4 a3 3b 61 8c 3e bc
       0.0038148519 0.027111905 0.005001589 -0.011630149
000390 1b 96 c9 bb 75 41 7e bd 3f ee b1 3c d9 c7 3b bc
       -0.006151927 -0.062074143 0.02172005 -0.011461222
0003a0 84 bd 39 3c cf 66 aa bb 07 69 b1 3c c2 87 21 bd
       0.011336688 -0.005200244 0.021656526 -0.03943611
0003b0 51 1e 55 3c d4 a8 65 3e d8 c7 00 bc 6e ef 09 be
       0.013007716 0.22427684 -0.007860146 -0.13470241
0003c0 72 ea 74 3a dd e7 bd bb 38 c5 c1 3e 85 cb 75 bd
       0.00093427964 -0.0057954625 0.37845778 -0.060008544
0003d0 db d0 ed 3f 18 ea 3e 3b c4 a4 33 bf fd 67 95 bd
       1.8579363 0.002913123 -0.7017329 -0.07295225
0003e0 5a 4b 9b 3b a1 de e2 bc 3f 6b 44 3c 74 b2 98 bc
       0.004739207 -0.027694048 0.01198846 -0.01863978
0003f0 85 2b 79 bd 3e 1c 6c bb 11 33 fc bc 5a 71 54 be
       -0.06083252 -0.0036027576 -0.03078607 -0.20746365

fc3.bias f4 [2]
000000 5f c5 5d bb b3 cc 93 3e
       -0.0033839566 0.2886711
