checkpoint_critic2.pth (torch_old, 159748 bytes, 5 tensors)

fcs1.weight f4 [256, 24]
00000000: 6a29 8b3c 0e26 db3e 80e6 b53d ab68 05be
00000010: 28ab 0d3d 948e 00bf d024 283d 2f63 80bd
00000020: 5e76 cebd fddd 723e d116 85bd 7695 3c3e
00000030: 939e 9b3d 751b 8dbe 64c4 0e3d fe05 453e
00000040: f7ef 12bd e09d c93d 1437 123d f6d4 1cbe
00000050: c12d 13bd 2e81 283e 4648 74bd e5b9 00be
00000060: 8275 153e d5ea 8c3e 7029 9f3c 086d 373e
00000070: 9fd4 80bc 15e0 e13d 554a 833d faab 213e
00000080: 1c65 083e 88ed c13e 53e7 033d 05a0 423e
00000090: 1aad c8bc 2595 0a3e 88c2 7bbb c985 403e
000000a0: a8ba 573e 0316 b63e 7c16 15bd a1bb 09bf
000000b0: 7f88 d43d fd14 2f3d 2c34 c53b 6d96 02bf
000000c0: c53f e13a 93c5 b73e acb2 a4bc 5baf 16be
000000d0: 9129 70bd 52ea dabe 685b 9d3a 75f3 08be
000000e0: 912f a23b c027 a33e b883 bdbd c263 51bd
000000f0: b4d1 5c3d 9325 13bf e721 a0bd db4b d03c
00000100: 9f1c ea3d e35d 3a3e 80ec 653d 818c 623e
00000110: 1e79 a23e bbfc 72be bb8a 4cbb d10f 653e
00000120: 5b67 c73d 267e 5c3d af90 0abd f2fb 46bd
00000130: 2982 36be 40df d43d 4858 babc 2560 e8bc
00000140: 15fc 283d 8d8c 623e fe9f acbc b922 8e3d
00000150: 866a 8c3b fd26 4d3d 0aaf 2f3d 89a6 07bc
00000160: 3ec4 85bb 8cc1 093e d2cc d13c 920b 64be
00000170: 3b5c ac3e 1f88 f8be 1677 263d 8c6a 6cbe
00000180: 851b d93c c433 ac3c 54fe d13c 07f6 433e
00000190: 359c 353e f380 dfbd 01cd b03d 209b 153e
000001a0: b24a a93b 00fb b63d a5d1 a83c a9e8 33be
000001b0: 3ac7 6a3e 9263 fcbe c53c 9eba dc41 a1bd
000001c0: 73a8 233e 2e98 aa3d 5afa 72bc 22f5 dd3a
000001d0: 0a7a 01be 79f3 023e c25a d93c cba4 26bd
000001e0: 1165 4b3e 7d91 a1be cbc6 32bd 7d17 38be
000001f0: b1f7 583d 1154 f6bd 1007 adbd de72 62be
00000200: adbc 6d3e f49a 90be 99cc 8d3c 2e8d 5fbe
00000210: b3a7 043e ddd8 8b3d 6e4e f3bb 0db4 77be
00000220: 5166 9e3e 951a a3be d8c5 14bc de71 adbc
00000230: 1ddb 8a3e 8e27 0a3e 5624 d63b f1e9 c0bd
00000240: 0e1d 8d3e 6de7 f03d 7d66 cebc aea7 473d
00000250: fd8f d4be 4389 71be 8ddf 7c3c 2c69 d13d
00000260: 9515 e53e 7fbe d13d c72f 5a3d 6bf5 e13d
00000270: a66a a8be 4390 9bbe 2f90 e7bc c911 823d
00000280: 6475 ea3e 6c5e 163e 37a2 a23c bcdd 8abb
00000290: 48ee 24be 80ac ccbe 8f2b 8d3c 86d9 173d
000002a0: 518c afbd 154b 95bd 2b66 96bc b75d 1ebd
000002b0: fcc9 903e 2b47 613c 0a11 7e3c f358 83bc
000002c0: 8137 b23c f549 39bd f21c 15bd e637 13bd
000002d0: 7d92 2b3e f119 b6be 2406 103d 92a9 0a3d
000002e0: 9163 0bbc 3074 5b3b 206f 0dbc feba 953c
000002f0: 28c3 eebe 7e0f 553e e1ba 543c 1c7e 8dbc
00000300: 02ea 153e 7d8e 05bb d325 9cbb a5ca 4bbe
00000310: 42e0 1a3e 44d5 3ebe 67f3 853c d79e 64be
00000320: cc10 aa3d 7c54 7ebd 09c8 8bbb bcdb 5b3c
00000330: 9709 263e 6b3c 56bd 2f31 b4bd fcc6 85bd
00000340: 96cb 2e3e df86 5abe d87f c23c d847 37bd
00000350: 160c b63e c76f 9f3e 4f17 d23c e1c6 8dbd
00000360: 1aff f13c 3ce0 c23e 316c 14bc 4523 d33d
00000370: 2ce2 e23c 38b7 4bbf 7e49 713d 68d0 c23d
00000380: f207 e33c c200 db3e 8dff 523d 5839 f9bc
00000390: 6f0a 373d 4a20 a7bf 1bf4 88bc 1597 27bd
000003a0: 65c0 05be d5ae 223f dad6 04bd 2ffd 0e3e
000003b0: 1838 d13b ba06 86bf 63eb 453d fa2e d43d
000003c0: c8a7 4b3e 3b5e b33c 8e9a 953d 16d8 7d3d
000003d0: 5bc7 9f3d b5a8 d83d 436c 753d 1798 e33d
000003e0: 99e8 563e e387 153d 26a2 013d a992 153e
000003f0: 0c42 bf3d 8413 8abd 9b41 58bd 9ee5 223e
0.016987521 0.4280247 0.08881855 -0.13028209 0.034587055 -0.50217557 0.041050732 -0.06268918
-0.100811705 0.23717494 -0.064984925 0.1841639 0.07598605 -0.2756001 0.03485526 0.19240567
-0.03587338 0.098445654 0.035697058 -0.15315613 -0.035932306 0.16455528 -0.059639238 -0.12570913
0.14595607 0.27522913 0.019428939 0.17912686 -0.015726386 0.110290684 0.06410662 0.1578826
0.1331982 0.37876534 0.03220303 0.19006355 -0.024496604 0.13533457 -0.003841551 0.18801035
0.21067297 0.3556367 -0.036398396 -0.53801924 0.10377597 0.042744625 0.0060181823 -0.5101078
0.0017185142 0.35892925 -0.020104729 -0.1471533 -0.05863339 -0.42756897 0.0012005391 -0.13374121
0.004949518 0.31866264 -0.09253639 -0.051120527 0.053910926 -0.5747921 -0.07818966 0.025426796
0.1143124 0.18199877 0.056133747 0.2212391 0.3173303 -0.23729222 -0.003121062 0.22369315
0.0973651 0.053831242 -0.033829387 -0.048580118 -0.1782309 0.10394144 -0.022747174 -0.028366158
0.04125603 0.22123928 -0.021072384 0.069402166 0.0042851595 0.05008601 0.04289154 -0.008279451
-0.004082232 0.13452739 0.025610361 -0.22270039 0.33664116 -0.48541352 0.040640913 -0.2308752
0.02650238 0.021020778 0.025633968 0.1913682 0.1773537 -0.10913267 0.086328514 0.14609957
0.005166375 0.08934593 0.020607779 -0.17569222 0.22927561 -0.49294716 -0.0012072554 -0.0787389
0.15982227 0.08329807 -0.014830196 0.0016934017 -0.1264421 0.1278819 0.026532535 -0.040684503
0.19862773 -0.3155631 -0.043646615 -0.1797771 0.052970592 -0.12027753 -0.08448613 -0.22114131
0.23216505 -0.2824322 0.017309474 -0.218312 0.12954597 0.06828473 -0.007425121 -0.24189778
0.30937436 -0.31856218 -0.009080373 -0.02117246 0.27120295 0.13491651 0.0065350933 -0.09419621
0.2756123 0.11762891 -0.025195355 0.048743896 -0.41516104 -0.23587517 0.015434158 0.10225138
0.44743028 0.10241412 0.05326822 0.11033138 -0.32893866 -0.303835 -0.028266994 0.063510485
0.45792687 0.14684457 0.01985274 -0.0042378586 -0.16106522 -0.39975357 0.017232684 0.03707268
-0.08571685 -0.072897114 -0.018359264 -0.038663592 0.28279102 0.013749878 0.015506992 -0.016033625
0.021754982 -0.045236547 -0.036404558 -0.03594198 0.167551 -0.35566667 0.035162106 0.03385312
-0.008507625 0.0033486001 -0.008632451 0.018277641 -0.46633267 0.20806691 0.0129840085 -0.017272048
0.14640048 -0.002037912 -0.004765251 -0.19901522 0.1512461 -0.18636042 0.016351415 -0.22326218
0.08303985 -0.06209229 -0.0042657894 0.013419088 0.16214596 -0.052303713 -0.087984435 -0.06532094
0.1706985 -0.21340512 0.023742601 -0.04474625 0.35556096 0.31139967 0.02564588 -0.06922699
0.029540587 0.38061702 -0.009058998 0.103094615 0.027695738 -0.79576445 0.05890798 0.095124066
0.02771375 0.42774016 0.051513243 -0.030422851 0.044687685 -1.3056729 -0.016717961 -0.040915567
-0.13061674 0.6354802 -0.03243146 0.1396377 0.0063848607 -1.0470803 0.048320185 0.103605226
0.19888222 0.021895519 0.073048696 0.061973654 0.07801696 0.10579053 0.0599177 0.11112993
0.20987166 0.036506545 0.031648777 0.14606728 0.09338769 -0.067420036 -0.05279694 0.15907905

fcs1.bias f4 [256]
00000000: dc8b c8be 55b6 123e 654d 0cbe 7ace 2f3e
00000010: 4054 22be 835a f0be 7ef4 c4be 3894 afbd
00000020: 624c 0ebf 19b5 1cbd bc38 b13d 1759 49be
00000030: bb26 8fbe 5c37 f4be 69eb 4a3d 853c 3a3f
00000040: 34f9 893e 368d 77be 4b88 babe c539 85be
00000050: 752b 003d 2822 d9be 6d0b c33d 366b a1be
00000060: a33f 9dbe 2804 4bbf 5260 98be 15c7 043e
00000070: 7baa ddbd 94f0 b1be 662a 4fbd 2a7c b6be
00000080: 8aa9 93be b411 d8be f6b4 aebd 0a32 adbc
00000090: ebb5 3abd 277d 6e3e d2a7 20be 74ba 83be
000000a0: f46b f9be 7a6c 6cbe d32c eb3e c607 18bf
000000b0: 2b5b 04be e599 1cbe d12a 24be 61a7 97be
000000c0: a352 3dbb 9b33 d1be ee14 d039 08b1 013f
000000d0: 49c2 bb3e b051 00bf e42e b43d 520e 0bbe
000000e0: 8274 023d a102 47be 37cf ccbe 3178 b73d
000000f0: 9fc8 373e 9ab6 60be c829 afbd f638 dfbe
00000100: 2736 3cbe 589c be3d b861 55be 236a 293e
00000110: 35ce 19bf d4a5 16bd 946f 35be 5300 81be
00000120: 6464 13bf ff62 4abd 826f 97bd 3652 f83e
00000130: 8c39 5b3d 8036 5e3e 2666 45be ba3b 3abe
00000140: 78e9 babe 77c6 c2be b804 3ebe 7f6f 5dbc
00000150: d2da 0ebe 0f76 a2be d69b d6bd f7e1 85be
00000160: 64a0 57be 9e5f 3d3e 3a54 9bbe edb2 5dbd
00000170: 50e5 96be 85d8 69bd 5091 85be 0a02 8cbe
00000180: 434a b33c ea36 0bbf 7d71 fdbd 9adc 5abd
00000190: c987 abbe e134 5ebe 7d5c 4fbe 9132 3dbe
000001a0: 8c5c e0be 1769 f9bb 123c a93e a91d 4f3d
000001b0: 4959 323d 0155 45be 6beb 11be 5394 23bd
000001c0: 5f46 d2be 5e64 ccbe 6c76 863d 7a58 84bd
000001d0: 39b6 973e 3d2a fabe 02fd c8be a2b3 f5bd
000001e0: c248 97be f746 8abe 68b2 923d 0279 b8bd
000001f0: 02fd adbe f4e5 a7be 47c1 64be 3e6d f5be
00000200: 1b56 8dbe fac1 b4be 2194 ebbe ef07 713e
00000210: 3bdf 81be cd19 0c3f 1f84 e93e 5534 e63d
00000220: 386a b63b cc5f 273e ee6a cf3d 1972 35be
00000230: 62ff 843d 64a6 8bbe 985b 1e3e e727 05bf
00000240: 52b3 bc3d 3366 1abf 8d8a 7abe 4be1 aebe
00000250: 8c74 87be ebd4 103f a58e 61be 00d8 a33d
00000260: cf92 b73e 2c5c d1be 49ef 2c3e 09f6 3c3e
00000270: 3bdf 333c cec5 b7be 134c f4bd a38b 093e
00000280: 098e f4be b381 f1be e163 55be fc58 e0bd
00000290: c727 ec3d 983e 803d d5d6 b2be 9ca5 12be
000002a0: be6c 7b3d 26cd 3fbe 6194 49be ca5f 86be
000002b0: a57f 5fbe 9282 f8be 278a 54be c827 e7be
000002c0: b626 783d 9b31 ed3d e37c 9cbe c4ad b5bd
000002d0: e4ab dcbe fb18 843c c927 033e 5e12 da3c
000002e0: 5f63 e03e a363 15bf 8d35 a1be 6fdf 893e
000002f0: 780b 433d 09d7 cfbd cdce 853e b8c6 543e
00000300: 6add 31be e848 2dbe 1beb bebd 6d98 f4be
00000310: 209d 42be aa87 31be 6e5b b43d 1d85 6bbe
00000320: 843e 6fbe c28c 0bbc 5119 3d3e 2120 b8be
00000330: 09b0 0cbe 38fc ab3e fb8e efbd b7b1 b73d
00000340: 480a a23c 07f1 32be d020 4c3e 89c9 86be
00000350: 478e a93e 16e1 da3d 65d7 aebd 2ec2 dbbe
00000360: a2a8 253e 4419 6dbe a5d8 8a3b cbea 51be
00000370: d8e2 a7be 8417 b0bd eeb5 353c e5b3 cbbb
00000380: 4e8d 5d3e be30 0abf 0e7b 23be d4a1 3cbe
00000390: 0c07 b7bd 50e8 7cbe bd46 f03d ee91 babd
000003a0: eba8 f5bd 6296 acbe 953f 7f3b f6ad 253d
000003b0: ae3b 15be c8de 363e 2775 703e 3192 babc
000003c0: 67a2 b3be 85bb 2ebe bef7 aabd a06c cb3c
000003d0: fd11 c7bd fcc6 bf3c 81ab f5bd a162 5fbe
000003e0: 51fc 91be ae7b a2be 733b 05bf ffe0 99bd
000003f0: bf88 cc3e b500 943e bd5a 9abe 6258 a13d
-0.39169204 0.14327367 -0.13701399 0.17168608 -0.15852451 -0.46944055 -0.38467783 -0.08573192
-0.555853 -0.038258646 0.08653399 -0.19662891 -0.27959237 -0.47698486 0.04954091 0.72748595
0.2694794 -0.24174961 -0.36432108 -0.26020637 0.031291444 -0.42408872 0.09523664 -0.31527108
-0.30712613 -0.79303217 -0.29760987 0.12966569 -0.10823532 -0.3475386 -0.050577544 -0.35641605
-0.28840286 -0.42201006 -0.08530609 -0.021142025 -0.045583647 0.2328993 -0.15689018 -0.2572819
-0.48715174 -0.23088256 0.45932636 -0.5938686 -0.12925403 -0.15293081 -0.16031958 -0.29619887
-0.0028888367 -0.40859684 0.00039688445 0.50660753 0.36671665 -0.50124645 0.08798006 -0.13579682
0.03184939 -0.19434597 -0.40001842 0.089584716 0.17947625 -0.21944657 -0.08552891 -0.43598145
-0.18380032 0.09307164 -0.20838058 0.16544394 -0.6008027 -0.03677924 -0.17718345 -0.2519556
-0.5757506 -0.049410816 -0.07394315 0.48500222 0.053521678 0.21700478 -0.19277248 -0.18186846
-0.36506248 -0.38042042 -0.18556488 -0.013515352 -0.13950661 -0.31730697 -0.10478942 -0.2614896
-0.21057278 0.18493506 -0.30337697 -0.054125715 -0.29471827 -0.057091255 -0.26087427 -0.27345306
0.021885997 -0.5438067 -0.12375162 -0.05343304 -0.33502033 -0.21699859 -0.20250125 -0.18476321
-0.43820608 -0.0076114046 0.33053643 0.050565396 0.04354218 -0.19270708 -0.14249961 -0.039936375
-0.41069314 -0.39920324 0.06565556 -0.06462188 0.29631212 -0.4886035 -0.3925553 -0.11997153
-0.29547697 -0.27007267 0.071629345 -0.090074554 -0.33982092 -0.32792628 -0.22339354 -0.47934908
-0.27604756 -0.35304242 -0.4601145 0.23538183 -0.25365624 0.5472687 0.45608613 0.1124045
0.0055668615 0.16345137 0.10127817 -0.17719306 0.06494023 -0.27275383 0.15464628 -0.5201401
0.0921389 -0.60312194 -0.24466915 -0.3415626 -0.26456106 0.5657489 -0.22027071 0.08000183
0.35854194 -0.40890634 0.16888155 0.1845323 0.010978515 -0.358931 -0.119285725 0.13432173
-0.47764614 -0.47169265 -0.20838882 -0.109544724 0.115310244 0.06261939 -0.3492953 -0.14320987
0.061383 -0.18730602 -0.19685508 -0.26244956 -0.21826036 -0.48537117 -0.20755826 -0.45147538
0.060583793 0.11581727 -0.3056403 -0.08871034 -0.43099892 0.016125193 0.12808146 0.026620086
0.43825814 -0.5835516 -0.31486169 0.2692828 0.04761836 -0.101484366 0.2613434 0.2077893
-0.17369619 -0.16922343 -0.093221866 -0.47772542 -0.19005251 -0.17336908 0.08806501 -0.22999997
-0.23363692 -0.008517446 0.18466689 -0.35962012 -0.13739027 0.33590865 -0.11697193 0.08969443
0.019780293 -0.17474757 0.19934392 -0.26325634 0.33116361 0.10687463 -0.08537177 -0.42921585
0.1617761 -0.2315417 0.004237252 -0.20499723 -0.32790256 -0.08598235 0.011090739 -0.0062165135
0.21635935 -0.53980625 -0.1596491 -0.18421108 -0.08936891 -0.24697995 0.11732242 -0.09109865
-0.11995109 -0.33708483 0.003894781 0.040449105 -0.14573547 0.17858422 0.2348219 -0.022774788
-0.3508484 -0.1706372 -0.08348034 0.02483207 -0.09720228 0.023410313 -0.119956024 -0.21814968
-0.28512815 -0.31734985 -0.5204384 -0.07513618 0.3994808 0.2890679 -0.30147353 0.07878186

fc2.weight f4 [128, 258]
00000000: b0f0 28be 185c 993d 83ff 453e ec3f b83b
00000010: ba21 e33c 8935 78be c7d0 163d d891 c23d
00000020: b8d7 cabd be91 c6bb fce0 a63c 1bea adbd
00000030: 1274 90bd c3b2 b6bd c8ca 3b3e 8a81 103e
00000040: ad1e b53d 485a c53d e8ba 2f3e 3b30 a2bd
00000050: 4abe 0bbe 374c 4abd 7f23 efbd e8c7 64be
00000060: 96a2 cfbd 7e7c fbbc 3720 4dbe da0c bc3d
00000070: a04f efbd 39e8 49bd 1a64 a0bd 3082 4bbc
00000080: 5a60 533c a4aa b93d 1df1 9cbd a1c4 ee3c
00000090: 4f42 b2bc 3ffa 0d3d 3b87 81be 8aa2 c4be
000000a0: 452f 80bd bdd1 a03b 6e2e 88bf 3ce2 cebc
000000b0: 7d19 03bf 2a37 2cbe 4ba4 80be 3e7c 643d
000000c0: c823 f5bc 1b33 ef3c 2eba 4ebe 27b5 d5be
000000d0: 30f5 c6be 54d0 9fbe d615 b3bd e2f8 0e3d
000000e0: 73a9 0abc 1d76 02be 3dab 333d 1df5 20bd
000000f0: 324c 22be 7f0e 0abd 3c6b ea3b 5796 2ebe
00000100: 4806 8ebd d1c7 6dbe d6cb f1bc 68c2 a3be
00000110: f770 f5be f93b 143e 719f ee3d 0467 6bbe
00000120: 7993 643e 442c d9bd dd55 91be 6e12 06be
00000130: fcf6 9bbd 3ba1 8fbd ab9e 003e bee2 32be
00000140: e9a2 a9be d9ca 86be 7f97 4bbe d95c c7be
00000150: 7e18 20be 7650 c93c cc62 d9be 14db 8dbc
00000160: 21c4 84be 181b af3c 6e04 14bd d8a5 06bf
00000170: 988d b0be d3a2 8abe fbe9 f9be e96c 2c3d
00000180: 9752 7abe 1845 0ebe 036a c33d 2729 2cbe
00000190: 243f 1b3e 0032 f7bc 89d7 ee3d 3c95 10be
000001a0: 5955 80be 0fef e9bd ce7d 94bd 1886 a5be
000001b0: 5245 a2be 1d07 86bd c8d1 ff3b fdcc 9c3d
000001c0: ad78 bc3c 4851 bb3c fde6 b0bd c8db 833d
000001d0: 2e12 a1bd cce1 f1bd 8c52 80bd 029c 2a3c
000001e0: 817c 8ebe f389 1f3d 5742 3bbd 5b9b c4bd
000001f0: 06f1 d1be 2155 6ebe cb19 b6bd aff5 4bbd
00000200: a6e5 1bbd ef93 57bf 5b87 7bbe 99a4 0ebe
00000210: b16e 08be 5760 6cbc ee19 62be 3df4 17be
00000220: a9fe e73d 3084 57bd 367b 1b3d 2707 1dbf
00000230: 73e0 9abd 0cf7 15bc 8cbd cebd 1763 3c3d
00000240: b36f b43a 617c 93bd 9aef 26bd 90a3 56bd
00000250: 17cf 28bd 4c5a bdbe 1bc0 28be 2c97 863e
00000260: 5585 51be fccc e7be 99aa 97be f2bb a1bd
00000270: 10b1 11be 361f 47be 5361 0bbe 8aa1 653d
00000280: d731 22bd d343 503c 16e8 693d ab23 87be
00000290: e282 91be b7df d6bc 1bb9 6dbd d879 1abe
000002a0: 3703 383e 515d 7abd 87a7 13be 351d 44bf
000002b0: ad79 8d3d bca5 f43c 9925 83be ec59 893c
000002c0: 8c97 3a3e e2b7 933d 6ae7 c0bd 1883 2fbd
000002d0: 66e2 72ba a99f 67be 7bf6 1bbe 5bf2 06be
000002e0: 0b4d 4ebd 6830 823d c07a e83d 41dc 13be
000002f0: e91c 31bf 3c45 71be 3ae6 d9bd 901e d9bd
00000300: 6c4d 90bc 91b0 42be 9a7b a4be 37d7 d9bd
00000310: c5e1 b7bb 5d6f 56bb 08ac 6abe edaf 993d
00000320: 418f 223d e4fb 79bd 9e89 b73d 956c 53bd
00000330: c2ba 11be f072 babe 2641 ec3d 69c1 febd
00000340: 8b9c e1bc 5a48 1e3a 9acf cb3d d34f 68bd
00000350: 4b94 e5be 0943 963d b180 48bd 6f30 a8bd
00000360: b811 673c 44a5 15be de4d 1b3d 1d20 abbd
00000370: 6113 22be 9ef4 a3bd 2477 663e fbf6 cfbe
00000380: 9ad4 fa3e 9f12 c2bd ff30 53bd 684a eebc
00000390: c75e a2bd 28bc 82bd 8e24 c03d 5ee9 23bf
000003a0: c954 92bd b0d9 94bd bd8b 89bd 6ba5 d0bc
000003b0: 6406 6fbe dc90 09bd c4da fabe 10b4 f7bc
000003c0: fd30 f1bd c6ad 313d fa9a 3cbd d9d1 09bf
000003d0: 8d89 48bd 0bb6 a1b9 99b3 90be 193d 82be
000003e0: b00c 92bc fb71 85bd e409 c3be ccef 9d3d
000003f0: e1e4 b73d fcd6 b2be bea8 d7be 2ba9 16bd
-0.16498065 0.074882686 0.19335751 0.0056228545 0.027726043 -0.24239172 0.0368202 0.09500474
-0.09904426 -0.0060598543 0.020370953 -0.08491918 -0.07053389 -0.08920815 0.18339074 0.14111915
0.088437416 0.096363604 0.17161143 -0.079193555 -0.13646808 -0.04938909 -0.11676692 -0.22341883
-0.10138433 -0.030699011 -0.2003182 0.09182139 -0.11685109 -0.04929373 -0.07831593 -0.012421176
0.01290139 0.0906575 -0.07663176 0.029146494 -0.021760134 0.03466248 -0.25298485 -0.38405257
-0.06259016 0.0049078153 -1.0639169 -0.025254361 -0.5121077 -0.16817918 -0.25125346 0.05578255
-0.029924288 0.029199174 -0.2018821 -0.4173977 -0.38858938 -0.3121363 -0.08744399 0.034905322
-0.008463251 -0.12740369 0.043864477 -0.03929626 -0.15849379 -0.03370523 0.0071538966 -0.17049538
-0.06934792 -0.23220755 -0.029516142 -0.31984258 -0.47937748 0.14476003 0.11651505 -0.22988516
0.22321881 -0.10604146 -0.2838582 -0.13092968 -0.07615468 -0.07013174 0.12560527 -0.17469308
-0.33132103 -0.26326635 -0.1988201 -0.38938025 -0.15634343 0.0245745 -0.4245819 -0.017316379
-0.25930884 0.021375224 -0.036137037 -0.5259681 -0.34483027 -0.2707735 -0.48811325 0.042096052
-0.24445568 -0.13893545 0.095417045 -0.16812573 0.15160805 -0.030175209 0.11662204 -0.14119428
-0.25065115 -0.1142255 -0.07250558 -0.32328868 -0.31693512 -0.065443255 0.0078069903 0.07656286
0.023006761 0.022865906 -0.086378075 0.06438404 -0.078647956 -0.118106455 -0.062657446 0.010413172
-0.27829364 0.038949918 -0.045717563 -0.09599944 -0.410042 -0.23274662 -0.08891638 -0.04979485
-0.038060807 -0.84210104 -0.24563353 -0.13929977 -0.13323475 -0.014427266 -0.22080204 -0.14839263
0.113278694 -0.0526163 0.0379593 -0.6133904 -0.075623415 -0.009153139 -0.10094747 0.045992937
0.0013766199 -0.07201458 -0.040755846 -0.05240208 -0.04121312 -0.36982954 -0.16479532 0.2628721
-0.20461018 -0.45273578 -0.29622343 -0.07897176 -0.142277 -0.194455 -0.13611345 0.05606226
-0.039598312 0.012711483 0.0571061 -0.263944 -0.28420168 -0.026229722 -0.05803786 -0.15085542
0.17969976 -0.06112415 -0.14419375 -0.76607066 0.069079734 0.029864185 -0.25614622 0.01676651
0.18221873 0.07212807 -0.09419139 -0.04284963 -0.00092653034 -0.226195 -0.15230744 -0.13178389
-0.050366443 0.06356889 0.11351538 -0.14439489 -0.6918474 -0.23561567 -0.10639615 -0.106015325
-0.017615043 -0.19012667 -0.3212555 -0.10636752 -0.0056116306 -0.0032720186 -0.22917187 0.07504258
0.0396874 -0.061031237 0.08961795 -0.051617224 -0.14231399 -0.36415815 0.115358636 -0.12439234
-0.027540466 0.0006038003 0.09951706 -0.05671675 -0.448397 0.07337005 -0.048950855 -0.08212363
0.014103346 -0.14613825 0.037916057 -0.083557345 -0.15827705 -0.080056414 0.22506386 -0.4061812
0.48990327 -0.09476208 -0.0515604 -0.029088214 -0.079282336 -0.06383544 0.09381972 -0.64027965
-0.07145078 -0.07268083 -0.06716106 -0.025469502 -0.23342282 -0.033585414 -0.4899503 -0.030237228
-0.11776922 0.043378614 -0.046046235 -0.5383583 -0.048959304 -0.00030843946 -0.28262022 -0.2543724
-0.017828315 -0.06515881 -0.38093483 0.07711753 0.08979202 -0.34929645 -0.42120928 -0.036782425

fc2.bias f4 [128]
00000000: e303 83bd 5ef2 103e 0199 5ebe 5426 793d
00000010: c3cb cbbc f1ba 9bbd 08b7 c8bc a11c a3bc
00000020: 0bd6 533d 8ef2 04bc f4a9 893b 8c55 97be
00000030: 87f6 043d 713c a8bd 137e d13d c939 54bd
00000040: b0f2 123e fa44 b1bb b041 d63c e210 89bd
00000050: 901d b9bd b1fe 5e3c 1319 9cbe 0093 1bbd
00000060: bb7e 26bc f7e8 d9bd 64f8 9fbc 8865 ec3d
00000070: 3c39 4e3e e48c 2bbb 8505 34be d9d0 103e
00000080: 6c6c e13d 2c47 843b 8ba9 d0bd 37c7 9bbb
00000090: b6a7 c5bd 9f4c 833d 83ad fb3c 55b8 c8bc
000000a0: 6101 cd3d d98d 01be 48b1 c2bd d5b7 20bc
000000b0: bbcc 9cbc d6c9 9e3d 9101 c4bd ef7c 1fbe
000000c0: a313 a6bc f816 973e ea9c eebd 9d5d 27bd
000000d0: f9d2 52bd ad49 2fbe ad10 2b3c 3f5b 4dbe
000000e0: f8b6 8c3b f67d c4bd 6ef1 2fbd 675d 05be
000000f0: 8aba c33c e7ab 95bd 9050 a6bb 5f01 803e
00000100: 4adf 5cbd 5ba7 e7bd e7f1 b3bd 6abf 533c
00000110: a8b1 89bd 54ed debe 05a6 e13a 74ee 093e
00000120: ac0b a6bd 0b37 64bd 0631 04be c646 16be
00000130: d325 40bc 2854 f1bc fb06 32bc 3355 f03a
00000140: 73a2 b1bd fce4 5dbd 265e bfbd a9de 2ebd
00000150: b10e 08bd a194 e73b 6f07 7abd b42c 84bc
00000160: a3d2 763c 766f 553d af0a a4ba 1f5f 0abd
00000170: d63a dfbc 250e b03e 1add 803c 3728 943c
00000180: 7d6e c7bd 4d3e ccbd 2409 97bd d4eb 24bc
00000190: 0fb6 733d d644 0a3e 90d5 c1bd d5aa 4a3e
000001a0: f5b8 50bc 7e3a b9bd a31e cb3b a441 bdbc
000001b0: b256 ae3b 990f 0bbd 544b 71bd 2251 17bd
000001c0: 60ac e939 197f 7c3c 5a3d f5bd 44c7 893d
000001d0: f642 9b3d 978d cbbd fb81 153e fc99 8abc
000001e0: 9035 d93b d2bd 2fba 2c8f 92be 6c56 5ebe
000001f0: adc8 84be 5416 08bd 8cfa bcbd b62c 00bc
-0.06397226 0.14154956 -0.21738054 0.06082757 -0.024877435 -0.076040156 -0.024501339 -0.019911112
0.0517178 -0.00811447 0.004201168 -0.29557455 0.03246167 -0.08214653 0.10229125 -0.05181292
0.1435039 -0.005409834 0.02615437 -0.06692673 -0.09038842 0.013610528 -0.3048788 -0.037981987
-0.010162051 -0.10640138 -0.019527622 0.11542803 0.2013902 -0.0026176507 -0.1758023 0.14142169
0.11007008 0.0040368047 -0.10188588 -0.004753973 -0.09651129 0.06411099 0.030722385 -0.024501959
0.10010029 -0.12651767 -0.0950647 -0.009809454 -0.019140592 0.07753341 -0.09570611 -0.15575002
-0.020273035 0.2950971 -0.11651023 -0.04086076 -0.05147073 -0.17117949 0.010440988 -0.20054339
0.0042942725 -0.09594338 -0.042954855 -0.13023911 0.02389266 -0.073081784 -0.0050755218 0.25001046
-0.053923883 -0.113112174 -0.087863736 0.012924055 -0.06723338 -0.43540442 0.0017215615 0.13469869
-0.08107695 -0.055716556 -0.12909326 -0.14675435 -0.011727768 -0.029459074 -0.010865922 0.0018335938
-0.08673563 -0.054173455 -0.09344129 -0.042692814 -0.033217136 0.0070672785 -0.061042245 -0.016134597
0.015064868 0.05210825 -0.0012515391 -0.03378212 -0.027249735 0.3438579 0.01573043 0.018085582
-0.09737871 -0.099728204 -0.0737479 -0.010065991 0.059499796 0.13502821 -0.09464562 0.1979173
-0.01273941 -0.090443596 0.0061987205 -0.023102589 0.0053203935 -0.033950422 -0.05890973 -0.03694261
0.00044569653 0.015411162 -0.119745925 0.0672746 0.07581131 -0.099391155 0.14600365 -0.016919129
0.0066286996 -0.00067040056 -0.28624856 -0.21712655 -0.25934353 -0.03322442 -0.092274755 -0.00782316

fc3.weight f4 [1, 128]
00000000: 5e86 58bd a291 273d 46ea 763d f38c 54bc
00000010: 0082 a8bc ed6d 88bb a971 4dbc ff23 50bc
00000020: 6744 d43c 353a 46bd aced 023c 8de7 0fbd
00000030: e70f a93c 25ff 3a3b 2766 eebc 64b8 edbc
00000040: 3caf 253c 8934 1f3b 9c47 f13b a732 f73a
00000050: 0ed3 69bd 1abd 503c 1a75 f2bd 454d eeba
00000060: 7d22 d8bc 5c6b c7bd 4815 983b f6fc 8dbc
00000070: 5b67 283d 916e 833c 8307 ab3d 5784 6d3d
00000080: e1a8 99bc 63fe 80ba 2d78 19bc e3a2 643d
00000090: 72bc 41bd e1ad 133d 5232 a93a 51a8 423b
000000a0: 4402 ae3c a5c4 7b3c f616 47bd d765 013c
000000b0: e466 563b 6f03 303d af5b 48bc 13ca aabd
000000c0: 2434 79bd bd73 d0bc 1148 50bc af2c 083e
000000d0: 669a ee39 5843 48bd e60e 2ebc dc92 a03a
000000e0: 70c5 a4bc 42b9 5f3b 085e 10bd d7c3 aabc
000000f0: 5ab3 06bd 9edb 2f3c c2b6 d6bc 9965 5abc
00000100: f824 c73c 05ed d739 fa2c d63c 5596 7cbc
00000110: 1a8f dbbd e324 a0bc f815 20bd 8a10 553c
00000120: 8d4c b73c b39e 83bc 26ae debc 59b4 a9bd
00000130: 71fa 7dbd 4df0 1d3b ca0c 6b3c f006 b93a
00000140: fdce 3ebe 43e1 c9bb dbc0 1ebd c20e 9c3c
00000150: 59e8 17bb f514 4ebd c549 84bb 7057 74bd
00000160: 4997 553b c967 0dbd 9b98 50bd 18d5 c93c
00000170: 66b5 323d 906b adbc 3f78 93bd 5969 c9bc
00000180: d616 98bd 6914 aebc 898c 05bc 44bc 993c
00000190: 47ba 2d3c 3b7b 60bc 419b bfbc 164f a23c
000001a0: fd6d b9bc cb0b 21bb c1e3 17bd 1520 f9bd
000001b0: 8b92 d4bc 2625 b73c 1a9b 88bc 2f7a babc
000001c0: 0e36 a7bd 3149 9fb9 2688 f03c f659 ebbc
000001d0: 9b3f 5cbd 4495 e8bc a48b c6bd 36aa 98bb
000001e0: ede9 af3c b6e0 debc 8561 1cbd f9b4 f4bc
000001f0: cf38 0ebc 94c5 cbbc 74a8 f4bb b5de 05bb
-0.052862518 0.04091037 0.060282014 -0.012973058 -0.020569801 -0.004163495 -0.012539306 -0.012703895
0.025911523 -0.048395354 0.007991236 -0.035132933 0.020637466 0.0028533426 -0.029101444 -0.029018588
0.01011258 0.0024292788 0.007363273 0.00188597 -0.057086043 0.012740398 -0.118387416 -0.0018180987
-0.026383633 -0.09737274 0.004641209 -0.017332535 0.041114192 0.016043933 0.08351042 0.057987537
-0.018757286 -0.0009841438 -0.009367031 0.055819403 -0.047298856 0.036054496 0.0012908673 0.0029702375
0.021241315 0.015366708 -0.04860588 0.007897816 0.0032715136 0.042972025 -0.01222889 -0.08339324
-0.06084074 -0.025445813 -0.0127124945 0.13298295 0.00045509933 -0.04889235 -0.010623669 0.0012250799
-0.020113677 0.0034137522 -0.035245925 -0.020845337 -0.032885887 0.010733513 -0.026210193 -0.013329887
0.02430962 0.0004118459 0.026144493 -0.015416701 -0.10720654 -0.019548839 -0.03908345 0.0130044315
0.02237537 -0.016066885 -0.02718265 -0.08286352 -0.062006418 0.002409953 0.014346311 0.0014116447
-0.18633647 -0.0061608865 -0.03875814 0.019050006 -0.0023179261 -0.050312955 -0.0040371143 -0.0596537
0.0032591394 -0.034522805 -0.050926786 0.024637744 0.043630026 -0.021169454 -0.072006695 -0.024586366
-0.074262306 -0.021249967 -0.008151182 0.01876653 0.010603494 -0.013701255 -0.02338946 0.019813102
-0.022635454 -0.002457368 -0.037082437 -0.12164322 -0.025948783 0.022356581 -0.01667552 -0.02276334
-0.08164607 -0.00030381375 0.029361796 -0.02872942 -0.053771596 -0.028391488 -0.09694603 -0.0046589626
0.02147385 -0.02720676 -0.03817894 -0.02987145 -0.008680536 -0.024874486 -0.0074663702 -0.0020426933
